models/model.pt (torch_old, 977946 bytes, 11 tensors)

weight f4 [259, 100]
-0.33592856 2.3310316 -1.5529208 0.36548185 2.4250803 -0.75594866 -1.2333888 0.36417407
-0.4130352 -0.15109314 0.6969293 -1.5565478 -1.5876187 -0.14728107 1.8436728 -0.7056445
0.26498845 -0.9426276 1.1898438 -1.4072248 0.8118696 -0.31015366 0.15703899 -0.7415398
0.36281228 -0.5250133 0.9459829 -2.6658974 -0.0128499875 0.873209 0.311615 -0.30821824
-0.7921365 1.1601619 1.1809108 1.1547383 -1.3587139 0.6804466 -1.5137327 -0.41511944
-0.39500457 -1.3220896 1.5931729 1.6976618 -0.66036236 -0.95222014 0.5504009 1.8181192
-0.49918333 -1.4245633 -0.81899154 0.17204697 -0.05773599 1.8480507 -1.351091 0.71420056
1.9765067 1.6309485 0.58999234 -0.1318028 -1.0086371 -1.346626 -0.2564898 -0.9207388
0.42572722 -1.3526045 -0.057777997 0.5449002 0.6799579 0.6624049 -1.3775402 0.11986536
0.974393 -0.2720934 1.828683 -0.007875169 2.8083854 -0.5130225 0.43031868 -0.75628734
1.8535864 -0.2951257 1.2311734 -1.2303678 0.16891208 1.0509311 -0.45211956 0.47769517
1.9723147 0.58887285 -0.4807871 -0.7470647 1.3367969 -0.15569933 -0.48827025 -0.61096066
-0.93861747 0.1479733 -0.39412263 1.2568074 0.7746265 1.7071732 1.4563133 -0.93685913
-0.5031629 1.4809258 -0.71007115 0.08244541 -1.2541144 -0.818282 0.16902249 1.145292
0.95522726 0.4368985 0.66353387 0.19540589 -0.41183802 -0.94503635 -0.9542216 1.2372612
-1.7016839 1.1053014 -2.0576167 0.58035153 -0.3464388 0.47402382 -1.0668442 -0.15048367
-0.9664945 -1.626972 -1.0979114 -0.20229645 1.3436327 0.5863079 0.15598395 1.6885875
-0.6197864 -0.39900103 -0.27785754 -0.10532629 -0.63044566 0.3992015 -0.2868588 -1.534188
1.2295909 0.01222666 -0.23335353 -1.4911213 0.45662266 -2.4776533 -1.026038 0.621615
-0.43841594 -0.1104287 0.3132269 -1.7722518 0.30555236 0.1944323 -0.78083247 -0.5435615
1.38413 -0.9682296 -1.976899 -0.17375489 0.07165424 -1.9965961 -0.82293296 -1.071512
0.17569052 -0.49610567 -0.7951831 2.6523573 1.313271 0.06379045 -0.73026973 0.30025285
1.8285393 -0.22658591 -1.8119869 0.24205515 -0.23788948 0.95223916 0.91301256 1.1758523
-0.5646802 0.07461678 -0.7192892 -0.91479 0.0648122 0.061776675 -1.3366337 -0.48715603
-2.019945 0.47719985 0.95682585 -0.9094643 -1.8630903 -0.99726355 -0.24849717 -0.7339114
0.68077004 -2.7274978 2.0920517 -0.052542273 1.5158788 0.20608912 1.5344499 -0.48811156
-0.593773 0.8676792 0.99006915 0.9868893 0.092079565 0.31758657 -1.6641172 0.3391247
-0.6550926 -0.66092616 -0.34784162 -1.9766288 0.070596404 0.44090614 0.9672338 -0.009232592
-0.8748164 0.37232473 -0.20259614 1.1465322 -0.0094850045 0.12543179 -0.9236915 0.035578374
0.82009894 0.5845238 -0.26290992 2.2310817 -0.64976203 -0.62106663 0.89968425 0.75646067
-0.74714637 1.3078086 0.73154294 0.5041366 1.4763829 0.20126806 0.19090143 -0.30273935
-0.7081149 0.08041267 0.09887713 1.0933037 -0.3100705 -0.30172843 -0.5278821 0.4761993
00000000: d4fe abbe 9f2f 1540 1cc6 c6bf 7020 bb3e
00000010: 8434 1b40 da85 41bf afdf 9dbf 0675 ba3e
00000020: 5a79 d3be 29b8 1abe f569 323f f53c c7bf
00000030: 1737 cbbf d9d0 16be 78fd eb3f 1ea5 34bf
00000040: 91ac 873e 0b50 71bf cd4c 983f f11f b4bf
00000050: b0d6 4f3f 76cc 9ebe d4ce 203e 8dd5 3dbf
00000060: 88c2 b93e 4667 06bf ef2b 723f 109e 2ac0
00000070: c188 52bc a08a 5f3f 008c 9f3e c8ce 9dbe
00000080: 75c9 4abf 2f80 943f 1628 973f 77ce 933f
00000090: 56ea adbf c031 2e3f fec1 c1bf 898a d4be
000000a0: 0a3e cabe 3b3a a9bf 17ed cb3f fb4c d93f
000000b0: 820d 29bf b3c4 73bf 13e7 0c3f 21b8 e83f
000000c0: f594 ffbe 1758 b6bf 6ea9 51bf 152d 303e
000000d0: 937c 6cbd ed8c ec3f 8df0 acbf d9d5 363f
000000e0: 2cfe fc3f ecc2 d03f bd09 173f 50f7 06be
000000f0: 051b 81bf 3e5e acbf a252 83be 8ab5 6bbf
00000100: ebf8 d93e 2522 adbf 9fa8 6cbd 947e 0b3f
00000110: b911 2e3f 5e93 293f 3d53 b0bf f87b f53d
00000120: d271 793f d34f 8bbe 4912 ea3f da06 01bc
00000130: 96bc 3340 7155 03bf bb52 dc3e 0c9c 41bf
00000140: 5242 ed3f b71a 97be 1797 9d3f b17c 9dbf
00000150: 4af7 2c3e e984 863f 377c e7be 7694 f43e
00000160: cf74 fc3f 5fc0 163f ba29 f6be a23f 3fbf
00000170: 291c ab3f a56f 1fbe 8ffe f9be eb67 1cbf
00000180: 3c49 70bf 5086 173e 71ca c9be 11df a03f
00000190: ec4d 463f a784 da3f 7968 ba3f 00d6 6fbf
000001a0: 49cf 00bf fa8e bd3f 39c7 35bf 24d9 a83d
000001b0: d286 a0bf ee7a 51bf 3b14 2d3e ee98 923f
000001c0: c689 743f 29b1 df3e 5bdd 293f 7b18 483e
000001d0: 6fdc d2be e7ed 71bf de47 74bf 935e 9e3f
000001e0: c7d0 d9bf 847a 8d3f feaf 03c0 eb91 143f
000001f0: 6d60 b1be 40b3 f23e 5a8e 88bf 6418 1abe
00000200: 2f6c 77bf 9e40 d0bf 5c88 8cbf cd26 4fbe
00000210: 28fc ab3f 4618 163f 42ba 1f3e a323 d83f
00000220: 52aa 1ebf dd49 ccbe 5843 8ebe 4fb5 d7bd
00000230: e364 21bf 2464 cc3e 28df 92be 4660 c4bf
00000240: 3c63 9d3f 5452 483c 3af4 6ebe 10dd bebf
00000250: 72ca e93e df91 1ec0 3755 83bf 2922 1f3f
00000260: 0e78 e0be 7128 e2bd 475f a03e 26d9 e2bf
00000270: 5c71 9c3e 4319 473e a3e4 47bf d926 0bbf
00000280: 2c2b b13f e5dd 77bf 070b fdbf cdec 31be
00000290: 75bf 923d 7690 ffbf bcab 52bf 4e27 89bf
000002a0: 37e8 333e 9001 febe 1f91 4bbf 39c0 2940
000002b0: 4419 a83f 91a4 823d f5f2 3abf beba 993e
000002c0: 930d ea3f 2306 68be 30ef e7bf 4edd 773e
000002d0: 4d99 73be f2c5 733f 31bb 693f 5482 963f
000002e0: e28e 10bf afd0 983d 5623 38bf ad2f 6abf
000002f0: 42bc 843d 8a09 7d3d d016 abbf 846c f9be
00000300: c746 01c0 8a53 f43e 8af2 743f a7d2 68bf
00000310: be79 eebf aa4c 7fbf 0b76 7ebe 9ee1 3bbf
00000320: f246 2e3f 538f 2ec0 2de4 0540 9136 57bd
00000330: 5108 c23f 0709 533e db68 c43f c2e9 f9be
00000340: 8201 18bf 3920 5e3f 2c75 7d3f c7a4 7c3f
00000350: 3694 bc3d b59a a23e cb01 d5bf c1a1 ad3e
00000360: 26b4 27bf 7532 29bf 4c18 b2be 2c02 fdbf
00000370: d994 903d 73be e13e a29c 773f 4c44 17bc
00000380: f8f3 5fbf 59a1 be3e 5d75 4fbe 91c1 923f
00000390: fe66 1bbc 3171 003e 0c77 6cbf a1ba 113d
000003a0: 01f2 513f 5aa3 153f 219c 86be 0bca 0e40
000003b0: ce56 26bf 39fe 1ebf b551 663f 68a7 413f
000003c0: fc44 3fbf 4666 a73f 6646 3b3f 190f 013f
000003d0: 1dfa bc3f 3719 4e3e aa7b 433e a700 9bbe
000003e0: 0547 35bf 66af a43d 1880 ca3d 60f1 8b3f
000003f0: 90c1 9ebe 267c 9abe 4823 07bf 65d0 f33e

weight_ih_l0 f4 [400, 100]
-0.14335015 0.028599761 -0.17043589 0.057153713 0.16989587 -0.034016192 -0.13734548 0.10200602
-0.10293062 -0.17751794 0.09295716 -0.16971554 -0.08349414 -0.076615654 0.13270219 -0.040599987
0.095908575 -0.1606561 -0.0133650545 -0.022264175 0.009270958 -0.1947233 0.11678254 0.010692622
0.096135564 0.02482161 0.09921943 -0.036139786 0.12798189 0.027892636 0.0017084584 -0.09517882
-0.08626964 0.10226576 0.068759836 0.16770038 -0.14450777 -0.0010601418 -0.13065861 -0.008233919
0.030856341 -0.033457667 0.036144093 0.16226472 -0.04953892 0.0437161 -0.028083898 0.019332236
0.047949087 0.0036297664 -0.1179823 -0.17228426 -0.0039167614 0.14453019 -0.06769584 0.18032567
0.13679157 0.042375457 0.01953108 0.01443455 -0.15885566 -0.1329562 0.12079031 -0.011961531
0.015811702 -0.16366144 -0.026279591 0.0016105506 0.060303994 0.048944365 -0.1330452 -0.23795438
0.08491774 0.19392231 0.0074442932 0.0871467 0.12414158 -0.17904189 0.122651346 -0.045878783
0.099122494 -0.16406985 -0.026348198 -0.16095889 0.15171017 0.009590797 0.04909077 0.07049156
0.123419814 0.18486089 -0.12872162 -0.056543566 0.05716271 0.11205295 -0.046235826 -0.026521072
-0.13114007 -0.18975015 -0.15405512 0.025404079 -0.080642544 0.009673081 0.17391013 -0.16512237
-0.07540964 -0.03318079 0.0100294985 -0.02956923 0.09107444 0.021194343 0.08773566 -0.07199239
0.15625812 -0.18582879 -0.13942163 -0.018493393 -0.26139 -0.032003235 0.04777664 0.046134446
-0.050537094 0.27990437 -0.24982202 0.091980554 -0.20696096 0.020397188 -0.11959268 -0.056736674
-0.21914458 0.008251911 0.07459708 0.26051176 0.17527641 0.0052564526 -0.053217284 -0.058325116
0.15862021 -0.09604535 0.16496716 -0.05830406 -0.0734095 0.16415787 0.08399079 0.010059449
0.18650244 0.09079697 0.20115735 -0.000535178 0.16452506 -0.047845196 0.04969112 0.01354751
0.010253247 -8.5487554e-05 -0.14124957 -0.055544447 -0.06277068 0.08818142 -0.10506842 0.22968334
0.2005658 -0.019841501 0.26616827 0.052557133 0.14095123 -0.050200295 -0.09698278 -0.16387482
-0.030470572 0.047085047 0.079784684 -0.3411603 -0.035973944 0.2140623 -0.029056128 0.058357604
-0.06672365 0.18881771 -0.28669053 0.07084183 -0.06582355 0.03929148 -0.030783845 -0.03549074
-0.20820734 -0.1111454 -0.07035559 0.15096408 -0.03892784 0.032689463 0.19771531 -0.03078689
-0.04991541 -0.16593374 -0.045495387 -0.027948642 -0.048169553 -0.3008174 0.13041447 -0.06072481
0.06529697 0.013416976 0.12035015 0.09648983 -0.021028724 0.23125091 0.11105308 -0.006037507
-0.16513455 -0.069651395 0.020046595 0.12360702 0.12952423 -0.00768255 0.01246254 -0.13179162
-0.3496431 0.24757761 -0.082077324 0.03324175 -0.06332116 0.08195416 -0.17953642 0.12148882
-0.36833635 -0.1087478 -0.23289664 0.012133132 0.2209679 -0.12062137 -0.1328284 -0.20483485
0.15808217 -0.17877328 -0.23095833 -0.09280215 0.18097478 -0.039860476 0.20446399 -0.09434639
0.07242561 0.14560159 -0.002426668 -0.12092008 -0.032299884 0.18263006 -0.11426193 -0.2157362
0.10849784 -0.0015828894 0.10215106 -0.20160322 0.059679903 -0.0977858 0.19149822 -0.04180004
00000000: 62ca 12be 0c4a ea3c bf86 2ebe 031a 6a3d
00000010: 2ff9 2d3e 9054 0bbd 4ba4 0cbe 88e8 d03d
00000020: 4acd d2bd 43c7 35be 5360 be3d e9c9 2dbe
00000030: fafe aabd abe8 9cbd 15e3 073e 2c4c 26bd
00000040: b76b c43d 0883 24be 1af9 5abc 5c63 b6bc
00000050: 37e5 173c 8b65 47be af2b ef3d 1b30 2f3c
00000060: b9e2 c43d b056 cb3c 8e33 cb3d 5007 14bd
00000070: af0d 033e 197f e43c 5aee df3a 1ded c2bd
00000080: 23ae b0bd b670 d13d f5d1 8c3d a6b9 2b3e
00000090: d8f9 13be 75f4 8aba 5fcb 05be 8fe7 06bc
000000a0: 70c6 fc3c e80a 09bd d40b 143d b928 263e
000000b0: 53e9 4abd a70f 333d 3410 e6bc a35e 9e3c
000000c0: 4366 443d 60e1 6d3b b4a0 f1bd 496b 30be
000000d0: 2d58 80bb b9ff 133e 1ea4 8abd 4ba7 383e
000000e0: 1713 0c3e e391 2d3d a5ff 9f3c e47e 6c3c
000000f0: 0fab 22be ac25 08be e960 f73d 4cfa 43bc
00000100: 8b87 813c dd96 27be 4c48 d7bc 1c19 d33a
00000110: 5201 773d e379 483d 003d 08be 50aa 73be
00000120: 5ae9 ad3d 9293 463e 42ef f33b f879 b23d
00000130: f13d fe3d c256 37be a130 fb3d 64eb 3bbd
00000140: bc00 cb3d ed01 28be 2dd8 d7bc 68d2 24be
00000150: e959 1b3e b822 1d3c 6713 493d e15d 903d
00000160: 87c3 fc3d 2c4c 3d3e 9acf 03be 3a9a 67bd
00000170: 7223 6a3d 047c e53d c761 3dbd b842 d9bc
00000180: 9549 06be dd4d 42be a0c0 1dbe 371c d03c
00000190: eb27 a5bd d87b 1e3c 7f15 323e d715 29be
000001a0: 5f70 9abd 94e8 07bd c452 243c 2b3b f2bc
000001b0: 3c85 ba3d c29f ad3c c1ae b33d bf70 93bd
000001c0: 2102 203e e749 3ebe 8bc4 0ebe 757f 97bc
000001d0: e9d4 85be d315 03bd 70b1 433d 79f7 3c3d
000001e0: fcff 4ebd a04f 8f3e 58d1 7fbe 4d60 bc3d
000001f0: 93ed 53be 0118 a73c 02ed f4bd b764 68bd
00000200: 7067 60be 0633 073c 5bc6 983d cc61 853e
00000210: a97b 333e 523e ac3b 5efa 59bd 51e6 6ebd
00000220: 566d 223e 6db3 c4bd 27ed 283e 3dd0 6ebd
00000230: b857 96bd 0019 283e 5d03 ac3d 63d0 243c
00000240: 7ffa 3e3e c3f3 b93d 31fc 4d3e 304b 0cba
00000250: 4279 283e 53f9 43bd ea88 4b3d 60f6 5d3c
00000260: 3cfd 273c c847 b3b8 baa3 10be 9382 63bd
00000270: ea8d 80bd 7698 b43d 1d2e d7bd 1c32 6b3e
00000280: 1f61 4d3e a58a a2bc 3547 883e 2646 573d
00000290: 8555 103e d39e 4dbd e89e c6bd cdce 27be
000002a0: 6c9d f9bc 40dc 403d 2766 a33d 90ac aebe
000002b0: 6a59 13bd 2633 5b3e 1e07 eebc 6208 6f3d
000002c0: 69a6 88bd 6e59 413e 1ac9 92be 8515 913d
000002d0: 7fce 86bd 1af0 203d 672e fcbc bd5e 11bd
000002e0: 4e34 55be 33a0 e3bd 9716 90bd 5496 1a3e
000002f0: cc72 1fbd 63e5 053d e275 4a3e ca34 fcbc
00000300: 1a74 4cbd 89ea 29be 5f59 3abd 8df4 e4bc
00000310: 704d 45bd bd04 9abe 5f8b 053e 94ba 78bd
00000320: 6bba 853d e0d2 5b3c 247a f63d 769c c53d
00000330: 6e44 acbc 0acd 6c3e cc6f e33d 48d6 c5bb
00000340: 0819 29be 64a5 8ebd c238 a43c ad25 fd3d
00000350: 00a2 043e e6bd fbbb ae2f 4c3c 62f4 06be
00000360: 6c04 b3be fc84 7d3e 2818 a8bd 8028 083d
00000370: 86ae 81bd 95d7 a73d 65d8 37be 21cf f83d
00000380: 9596 bcbe 2bb7 debd 757c 6ebe 0bca 463c
00000390: 6945 623e 5608 f7bd 2b04 08be 3ac0 51be
000003a0: 4be0 213e 5810 37be 5780 6cbe 0e0f bebd
000003b0: 7451 393e bd44 23bd 025f 513e ae38 c1bd
000003c0: e153 943d 9518 153e bc08 1fbb f2a4 f7bd
000003d0: e24c 04bd 6003 3b3e 2902 eabd f3e9 5cbe
000003e0: 1e34 de3d f478 cfba 9334 d13d 1371 4ebe
000003f0: ea72 743d ec43 c8bd 1c18 443e 8536 2bbd

weight_hh_l0 f4 [400, 100]
-0.08288145 -0.069623254 0.122897185 0.021758774 -0.02436506 -0.0061759152 -0.11717257 0.092543066
-0.087809585 0.05831216 -0.0086439075 0.0018806504 -0.10560281 0.044005 0.09512656 -0.09781751
-0.15789558 0.0026614708 0.020000607 0.12637733 0.03382456 0.11147132 -0.13714758 -0.1588877
0.00918047 0.018955288 -0.08302879 0.068581745 0.07124844 0.04369121 -0.11579822 0.12662314
0.12228427 0.017401326 0.05936179 0.10243595 0.10926059 -0.04255445 0.113520846 -0.037630897
-0.08480412 -0.06965656 0.014084952 0.09447884 0.013660653 0.06153464 0.026219888 0.08548391
0.062207013 0.001762293 -0.008293154 0.07130699 0.19454968 -0.089389995 0.10364325 0.044593353
0.18037587 0.017320612 0.082751505 0.010696578 0.06877397 0.009442072 -0.09368596 -0.011190168
-0.01492844 -0.051134102 0.034549013 0.10752193 -0.1571245 -0.060668834 -0.033514082 -0.066273324
0.17541608 0.060193993 -0.026567109 0.10806854 0.14983572 -0.0029964773 -0.009744514 -0.0024752165
-0.08811185 -0.12138369 0.15301982 -0.09240104 0.013746484 0.042608887 -0.05248717 0.14409484
-0.14229539 0.091456465 0.020342207 -0.040933546 -0.12291872 0.011623284 -0.048012845 0.073639214
0.0757233 -0.052977514 0.12072039 -0.13990746 0.00028553314 0.060425434 -0.10829643 -0.04854201
-0.053484745 -0.0643031 -0.08400486 0.07665101 -0.098434545 -0.14145708 0.102879785 0.029781533
0.102655545 0.1712387 0.1933144 -0.11924608 -0.0055641388 -0.21068464 -0.08955766 -0.2559926
-0.1921443 0.00112447 -0.016874263 -0.057415474 -0.22954957 0.017627144 0.07933492 -0.002242641
0.12339259 -0.14842916 0.12414973 0.061299495 0.014773382 0.10492098 0.17448498 -0.015897676
-0.017627304 0.17833303 0.07338571 0.0985677 0.11898116 -0.040518112 -0.043543752 0.019289035
0.114019826 -0.0734598 0.018133856 0.07973832 -0.26296616 0.20182797 -0.082828976 -0.17537823
0.08873803 0.20676015 0.013757201 0.10188878 0.09978345 0.07628658 0.041225947 -0.19371878
-0.029295497 0.031117896 0.02413663 0.035744004 0.098497055 -0.051369127 0.0027847257 -0.020245243
-0.018635191 0.12652996 -0.19018872 -0.12849957 0.0056236554 0.018124625 0.16756815 -0.0052274656
-0.2627951 -0.034601234 0.15095712 0.036745988 0.08588696 -0.048770208 -0.024352297 -0.22532646
0.15821569 -0.20787011 0.06638231 -0.19328137 -0.03867565 -0.07703878 0.18750054 -0.1417427
-0.2601434 0.10564554 -0.1043181 -0.019119434 -0.2561843 -0.047258623 -0.03990342 -0.15857984
-0.14928956 0.21745801 0.047663193 -0.16083801 -0.15694194 -0.21071096 -0.18517931 0.14857335
-0.16330531 -0.21662405 0.06248283 0.07443415 0.053877473 0.32919163 0.13408586 -0.08497506
0.0355802 -0.1031646 -0.12846306 -0.17554651 -0.2067367 -0.22647437 0.1329635 -0.27061808
-0.2661758 -0.12472912 0.15886277 0.16432667 0.21864973 -0.14220178 0.3054426 -0.051188923
-0.2081072 0.11204339 0.16660723 -0.116923586 -0.036088776 0.21714917 -0.11179065 0.21329048
0.1557049 -0.045362093 -0.09756125 0.16904968 -0.035679936 -0.010425474 -0.12769665 0.22144689
-0.27607113 0.13795686 -0.046411637 -0.20923845 0.07783506 0.3237919 0.13736977 -0.2278581
00000000: c0bd a9bd a396 8ebd 85b1 fb3d 753f b23c
00000010: 3c99 c7bc 555f cabb 2cf8 efbd 3887 bd3d
00000020: 83d5 b3bd bbd8 6e3d 2d9f 0dbc 2880 f63a
00000030: 4946 d8bd 963e 343d b7d1 c23d 8c54 c8bd
00000040: 61af 21be 126c 2e3b 50d8 a33c 0f69 013e
00000050: 9f8b 0a3d 134b e43d 6a70 0cbe 75b3 22be
00000060: af69 163c 1f48 9b3c 000b aabd 9674 8c3d
00000070: b4ea 913d 8ef5 323d 9e27 edbd 7fa9 013e
00000080: 2d70 fa3d 3a8d 8e3c 5925 733d f0c9 d13d
00000090: 04c4 df3d 934d 2ebd 9e7d e83d db22 1abd
000000a0: c8ad adbd 19a8 8ebd 92c4 663c 1f7e c13d
000000b0: eed0 5f3c bf0b 7c3d 17cb d63c 3012 af3d
000000c0: c8cc 7e3d befc e63a 02e0 07bc 6609 923d
000000d0: 0838 473e 1a12 b7bd ea42 d43d 85a7 363d
000000e0: 74b4 383e f5e3 8d3c 9f79 a93d b340 2f3c
000000f0: 5ed9 8c3d ecb2 1a3c 6dde bfbd f756 37bc
00000100: 6a96 74bc fe71 51bd 4483 0d3d 7534 dc3d
00000110: 3fe5 20be e27f 78bd 1046 09bd 4fba 87bd
00000120: 46a0 333e fa8d 763d 44a3 d9bc 0a53 dd3d
00000130: 896e 193e 8c60 44bb 74a7 1fbc 3e37 22bb
00000140: fc73 b4bd 0398 f8bd 3ab1 1c3e c23c bdbd
00000150: ef38 613c a886 2e3d c9fc 56bd 998d 133e
00000160: e2b5 11be 874d bb3d b3a4 a63c efa9 27bd
00000170: cfbc fbbd 966f 3e3c 1ea9 44bd 28d0 963d
00000180: d114 9b3d f3fe 58bd 403c f73d e743 0fbe
00000190: 9cb3 9539 a980 773d 85ca ddbd fdd3 46bd
000001a0: d212 5bbd 58b1 83bd bd0a acbd 34fb 9c3d
000001b0: 0d98 c9bd 20da 10be a3b2 d23d 67f8 f33c
000001c0: 123d d23d 3359 2f3e 36f4 453e 4a37 f4bd
000001d0: 6153 b6bb b7bd 57be 026a b7bd 7611 83be
000001e0: 7ac1 44be f462 933a e53b 8abc 7d2c 6bbd
000001f0: 0b0f 6bbe cd66 903c 597a a23d 46f9 12bb
00000200: 41b5 fc3d d0fd 17be 3742 fe3d 2e15 7b3d
00000210: 0e0c 723c d0e0 d63d 31ac 323e d83b 82bc
00000220: 2367 90bc ef9c 363e 3f4b 963d dddd c93d
00000230: 65ac f33d 52f6 25bd ef5a 32bd 0a04 9e3c
00000240: 3a83 e93d 1772 96bd 748d 943c d84d a33d
00000250: 80a3 86be feab 4e3e 3da2 a9bd 5a96 33be
00000260: 49bc b53d efb8 533e e265 613c 11ab d03d
00000270: 445b cc3d 233c 9c3d 8adc 283d 375e 46be
00000280: 1cfd efbc f5ea fe3c 2fba c53c 4e68 123d
00000290: d3b8 c93d 6f68 52bd f27f 363b 5ad9 a5bc
000002a0: d4a8 98bc 1291 013e d5c0 42be 6495 03be
000002b0: a446 b83b 187a 943c fc96 2b3e 294b abbb
000002c0: 148d 86be 06ba 0dbd 8194 1a3e f682 163d
000002d0: 81e5 af3d 45c3 47bd 787e c7bc fbbb 66be
000002e0: 4b03 223e e7db 54be 73f3 873d 8deb 45be
000002f0: 5c6a 1ebd 82c6 9dbd 2400 403e 0025 11be
00000300: 8431 85be b05c d83d baa4 d5bd 5ca0 9cbc
00000310: 972a 83be 4292 41bd c571 23bd c162 22be
00000320: 5ddf 18be 50ad 5e3e 7b3a 433d b8b2 24be
00000330: 63b5 20be 9dc4 57be a59f 3dbe 9d23 183e
00000340: 8239 27be b2d2 5dbe ffed 7f3d ee70 983d
00000350: a0ae 5c3d ce8b a83e ce4d 093e 6707 aebd
00000360: 8bbc 113d f647 d3bd d28b 03be 77c2 33be
00000370: c9b2 53be e6e8 67be 9527 083e 748e 8abe
00000380: 3248 88be fb71 ffbd ecac 223e 4045 283e
00000390: b7e5 5f3e 589d 11be f962 9c3e 7aab 51bd
000003a0: 0e1a 55be 0177 e53d 169b 2a3e a275 efbd
000003b0: d3d1 13bd 5a5c 5e3e 7ff2 e4bd d268 5a3e
000003c0: 1b71 1f3e 9acd 39bd 31ce c7bd 5c1b 2d3e
000003d0: 2025 12bd 9bcf 2abc e9c2 02be f9c2 623e
000003e0: 3259 8dbe 9044 0d3e 211a 3ebd 9b42 56be
000003f0: fd67 9f3d 0dc8 a53e a9aa 0c3e a253 69be

bias_ih_l0 f4 [400]
0.1655327 0.04579572 0.21561605 0.036363088 0.18726008 0.08872371 0.011885138 0.08985738
0.10377183 0.22015058 0.08494 0.048228007 0.09791674 0.19018486 0.08105385 0.14206806
0.041102402 0.009946312 0.07779365 0.07352538 0.13841318 0.093694545 -0.01153128 0.017876912
0.10097686 0.13506843 0.05446531 -0.026792958 0.16003588 0.23997325 0.15897305 0.112134956
0.04540062 0.20352417 0.12355822 -0.07105654 0.11330898 0.032725874 0.105264 0.055516966
0.12480698 0.17779623 0.24068336 0.0029413835 0.22936821 0.06671438 0.053415995 0.09830431
0.2450469 0.22588854 0.23391014 0.19426383 0.25609642 0.18804187 0.08039971 0.13625374
0.18149242 0.17146568 0.14779094 0.12863745 0.0034749636 0.16263142 -0.029169848 0.07176186
0.20567161 0.07360538 0.09295162 0.118193 0.17226847 0.19533606 0.07321285 0.13132787
-0.005812973 0.19078362 0.17434984 0.10841699 0.19072908 0.20427285 0.06253875 0.048675105
-0.011317088 0.096109696 0.05125073 0.034245208 0.015142756 0.052783366 -0.02445497 0.18600671
0.19523504 0.010805839 0.129095 0.15740801 0.16603225 0.09761212 -0.044162087 0.1816773
0.15076359 0.19194722 -0.016634386 0.06847599 0.09275692 -0.0865939 -0.21347028 -0.06637229
0.048008017 0.08248252 0.11575036 0.10104671 0.10190539 -0.011181849 -0.037338905 0.11142272
-0.10039425 -0.18617451 0.17908372 -0.038318895 -0.10113587 0.1599211 0.008074405 -0.07892461
-0.102108076 -0.2014392 -0.05710429 -0.05760856 -0.16039217 -0.14305276 -0.1611499 -0.1687796
0.109472975 0.037614208 -0.10343867 -0.2501502 -0.113440454 -0.08981938 0.029903697 -0.063542485
-0.11187314 -0.058092773 -0.17338578 0.0664213 -0.15765092 -0.11226463 -0.20427272 0.16022943
-0.28208378 -0.17444664 -0.16747606 -0.19559339 -0.2817319 -0.24408002 -0.12849326 0.043365803
-0.27171338 -0.1874126 -0.19110835 -0.1599092 -0.21499753 -0.020018043 0.14976943 0.18810138
0.03816129 0.038306147 -0.08111873 -0.073124185 0.20196 -0.08630475 -0.020220248 -0.10954866
-0.18020742 0.06592015 0.1428914 -0.096748315 -0.26019537 0.18081927 0.15481888 -0.12401839
-0.05607145 -0.12956427 0.19527745 0.105526306 -0.0035097317 0.08954074 -0.20136738 -0.00235457
0.024940198 0.011645479 -0.017862905 -0.14507939 -0.23119387 0.08392933 0.09363416 -0.0017528584
-0.12618446 -0.00827725 0.07472876 -0.23049144 -0.05693324 0.024218235 -0.11906358 -0.019243
-0.06528941 0.069512405 0.022380568 -0.12889521 -0.19448112 -0.05551476 -0.20301972 0.17066029
-0.119120896 -0.00903644 -0.08304574 0.08877187 -0.0642953 0.11617256 0.19393821 -0.03895162
-0.025661124 -0.074753694 -0.058310498 0.043559834 -0.12882316 -0.117961906 0.074919835 -0.042059757
-0.08437296 -0.083003454 -0.02681188 -0.015811225 0.09829909 -0.12673666 0.036740597 0.0075977445
0.03692188 0.16619952 0.04132475 -0.13414288 -0.03962307 0.15493126 -0.14877778 -0.03442035
0.025814714 -0.034201633 -0.11388883 0.20336148 0.027545437 0.0055911993 -0.017290743 0.0342474
0.02649307 0.05706511 -0.059812717 -0.057751138 -0.046235755 0.08505311 0.016193388 0.04280749
00000000: 6781 293e 4b94 3b3d 74ca 5c3e 76f1 143d
00000010: 1bc1 3f3e c7b4 b53d e2b9 423c 2507 b83d
00000020: 5386 d43d 276f 613e 06f5 ad3d bb8a 453d
00000030: 9288 c83d d2bf 423e 90ff a53d 4a7a 113e
00000040: fe5a 283d dbf5 223c 4752 9f3d 7994 963d
00000050: 2fbc 0d3e ede2 bf3d b2ed 3cbc 9a72 923c
00000060: f5cc ce3d 614f 0a3e 0417 5f3d e87c dbbc
00000070: 72e0 233e 8cbb 753e d5c9 223e 03a7 e53d
00000080: 00f6 393d a468 503e 180c fd3d 1786 91bd
00000090: 8a0e e83d 910b 063d a794 d73d c265 633d
000000a0: cd9a ff3d 3710 363e b375 763e 3ac4 403b
000000b0: 80df 6a3e 8da1 883d bbca 5a3d c553 c93d
000000c0: 93ed 7a3e 534f 673e 2486 6f3e 19ed 463e
000000d0: 121f 833e 0c8e 403e 9aa8 a43d 1a86 0b3e
000000e0: 26d9 393e b394 2f3e 8256 173e 89b9 033e
000000f0: 37bc 633b da88 263e 9bf5 eebc e2f7 923d
00000100: 949b 523e 6bbe 963d 6b5d be3d 2c0f f23d
00000110: 2567 303e 2d06 483e 9ef0 953d d07a 063e
00000120: c07a bebb c85c 433e c488 323e ba09 de3d
00000130: 7c4e 433e e72c 513e 5114 803d 8c5f 473d
00000140: 4f6b 39bc 29d5 c43d 49ec 513d b444 0c3d
00000150: 5219 783c 5f33 583d ca55 c8bc 8b78 3e3e
00000160: b2eb 473e f90a 313c 7b31 043e 912f 213e
00000170: 5c04 2a3e dde8 c73d 4ee3 34bd 9d09 3a3e
00000180: c561 1a3e d08d 443e d644 88bc 243d 8c3d
00000190: 57f7 bd3d 2558 b1bd f497 5abe 32ee 87bd
000001a0: 0ea4 443d 98ec a83d 860e ed3d 94f1 ce3d
000001b0: c6b3 d03d 1334 37bc aef0 18bd 9831 e43d
000001c0: 809b cdbd 88a4 3ebe b961 373e 46f4 1cbd
000001d0: 5320 cfbd 5bc2 233e 824a 043c 3aa3 a1bd
000001e0: 0a1e d1bd 1446 4ebe 30e6 69bd f4f6 6bbd
000001f0: d83d 24be 6c7c 12be 7b04 25be 8fd4 2cbe
00000200: 5e33 e03d 5b11 1a3d a7d7 d3bd b013 80be
00000210: 7853 e8bd 39f3 b7bd 99f8 f43c 9022 82bd
00000220: bf1d e5bd b0f2 6dbd 0b8c 31be e407 883d
00000230: 3e6f 21be 00eb e5bd de2c 51be 2f13 243e
00000240: 496d 90be 24a2 32be d87e 2bbe a249 48be
00000250: 2a3f 90be 1df0 79be bd93 03be 57a0 313d
00000260: 041e 8bbe 17e9 3fbe e8b1 43be 3dbf 23be
00000270: 5028 5cbe e1fc a3bc 285d 193e a69d 403e
00000280: 034f 1c3d e8e6 1c3d 9421 a6bd 22c2 95bd
00000290: 9ace 4e3e 8bc0 b0bd efa4 a5bc 0c5b e0bd
000002a0: 4b88 38be 2501 873d 2052 123e fb23 c6bd
000002b0: 5438 85be b028 393e d788 1e3e 5bfd fdbd
000002c0: 2dab 65bd 7fac 04be d0f6 473e 2d1e d83d
000002d0: 8703 66bb 2361 b73d 4033 4ebe 214f 1abb
000002e0: 634f cc3c aecc 3e3c 3a55 92bc b18f 14be
000002f0: 16be 6cbe 24e3 ab3d 44c3 bf3d 2bc0 e5ba
00000300: 8036 01be 4e9d 07bc 640b 993d f305 6cbe
00000310: d432 69bd 5265 c63c 9bd7 f3bd 7fa3 9dbc
00000320: 74b6 85bd 855c 8e3d 7457 b73c 1bfd 03be
00000330: 0f26 47be 7263 63bd 67e4 4fbe 92c1 2e3e
00000340: a8f5 f3bd 940d 14bc e313 aabd 07ce b53d
00000350: 41ad 83bd e1eb ed3d bd97 463e bc8b 1fbd
00000360: 4737 d2bc 7718 99bd fdd6 6ebd cc6b 323d
00000370: 38ea 03be 0396 f1bd 926f 993d da46 2cbd
00000380: bbcb acbd b7fd a9bd 96a4 dbbc 8b86 81bc
00000390: 0951 c93d 41c7 01be 4f7d 163d 80f6 f83b
000003a0: 663b 173d 3530 2a3e 2444 293d c05c 09be
000003b0: cd4b 22bd 4da6 1e3e 3459 18be 5afc 0cbd
000003c0: 6179 d33c 0317 0cbd 8c3e e9bd fe3d 503e
000003d0: f8a6 e13c 6136 b73b 51a5 8dbc 0047 0c3d
000003e0: ff07 d93c 1bbd 693d 2efe 74bd 758c 6cbd
000003f0: b461 3dbd 5330 ae3d ffa7 843c e856 2f3d

bias_hh_l0 f4 [400]
0.01727034 -0.008905656 0.114635974 0.0291755 0.23784007 0.045892946 0.15375489 0.20211655
0.18178086 0.11228301 -0.07911953 0.15250507 0.036037777 0.017303152 0.21153171 0.184208
0.10371303 0.17089151 0.14497791 0.12619768 0.08726487 0.14713131 0.059058163 -0.027624488
0.036680102 0.043378323 0.14287134 -0.028592754 -0.006571446 0.2094068 0.060801495 0.16604643
0.09620389 0.19483197 0.09735563 0.08278061 0.052818604 -0.050658926 0.084682904 0.14583361
0.15098642 0.16879068 0.23921321 0.14288352 0.24682692 0.026917066 -0.0051607853 0.13744755
0.10816749 0.16736808 0.25088736 0.06540011 0.19363941 0.17617187 0.09920503 0.16525406
0.20760106 0.04172878 0.04499578 0.082994826 0.0014796869 0.17001311 0.10284728 0.122728854
0.255359 0.21446294 0.09023061 0.076261014 0.08959402 0.16630168 0.14118819 0.07026785
0.088257916 0.08162342 0.2089076 0.0807495 0.08410226 0.18626659 0.19326247 0.011474527
0.10867637 0.14400338 0.09188816 -0.0282552 0.09570777 0.12068978 0.041389745 0.057822846
0.048783477 0.15866391 0.031280905 0.22645639 0.24116942 0.2453537 0.0067048767 0.13780077
0.07558578 0.2293445 -0.040622205 0.106174245 0.06999422 -0.027897138 -0.18651032 0.10394252
0.095943004 0.13030443 0.035174206 0.0958219 0.14411843 -0.019842073 0.08375424 0.027746158
-0.16463421 -0.04123733 0.21990527 -0.0616227 -0.043568034 0.05935354 -0.076449 -0.0033945092
-0.0513343 -0.14970227 -0.1630327 0.0863047 -0.048884615 -0.071824506 -0.13830991 -0.05187239
0.022164302 0.0031487655 -0.031084497 -0.11880878 -0.08129435 -0.013388785 0.05739542 -0.15939362
-0.11780007 -0.093541205 -0.16660233 -0.12171829 0.039001577 0.06525344 -0.22136888 -0.00040582157
-0.237446 -0.2804138 -0.14357655 -0.20514332 -0.17800191 -0.24570253 -0.16255933 0.07411928
-0.30544165 -0.23514347 -0.19184524 -0.23597501 -0.13116765 0.020424576 0.19440754 0.021820834
0.07170036 0.09921388 -0.13404979 -0.03675994 0.15146393 -0.037951894 -0.024415383 -0.19451994
-0.2955416 -0.03506313 0.1694724 -0.10376286 -0.17374152 0.042078175 0.12195649 -0.17992249
-0.14180051 -0.20138209 0.11053683 -0.020971496 -0.1051438 0.153626 -0.2617554 0.14766555
0.031304475 -0.06989525 -0.045071255 -0.16826607 -0.07928048 -0.03543589 0.1760586 0.026669104
-0.12805049 0.05291678 0.021554988 -0.11039042 -0.08899608 -0.03617398 6.983429e-05 0.07757907
-0.10290242 0.15751874 0.0881261 -0.11019273 -0.11491114 0.016462045 -0.110653706 0.19157064
-0.20090483 -0.1504703 -0.036418308 0.14172822 -0.011918426 -0.0053087343 0.05184521 -0.11188166
0.06936885 -0.082282 -0.1568146 -0.0079002315 0.02686954 -0.084133804 0.069347434 -0.08045492
0.011047703 0.08482679 -0.040922944 -0.058472212 0.14411053 -0.11402899 0.17919521 -0.01622972
-0.08588321 0.023645751 0.15107402 -0.005285999 -0.014815582 0.052020796 0.03887116 -0.062708594
0.021931035 -0.15540166 0.038394734 0.09368975 -0.030571979 -0.0282339 -0.028711898 0.07967889
-0.0760181 0.120585985 -0.08586671 -0.07856415 0.073410355 -0.05006906 0.04424329 -0.04072938
00000000: 877a 8d3c 07e9 11bc 44c6 ea3d 7501 ef3c
00000010: 598c 733e 3efa 3b3d ec71 1d3e a4f7 4e3e
00000020: c324 3a3e a2f4 e53d 6c09 a2bd 4a2a 1c3e
00000030: 599c 133d 57bf 8d3c c59b 583e 06a1 3c3e
00000040: 7f67 d43d 2ffe 2e3e 1775 143e f739 013e
00000050: edb7 b23d 97a9 163e f9e6 713d c04c e2bc
00000060: e03d 163d 78ad 313d dd4c 123e 5a3b eabc
00000070: 4955 d7bb bc6e 563e fd0a 793d 1308 2a3e
00000080: 8c06 c53d 0882 473e 6362 c73d e188 a93d
00000090: 5258 583d bc7f 4fbd 3b6e ad3d 6855 153e
000000a0: 2f9c 1a3e 77d7 2c3e 4ff4 743e 0f50 123e
000000b0: 32c0 7c3e 2e81 dc3c ce1b a9bb 0dbf 0c3e
000000c0: eb86 dd3d 8a62 2b3e 4f74 803e 7ef0 853d
000000d0: 6949 463e 6666 343e 022c cb3d 5c38 293e
000000e0: 5f95 543e cceb 2a3d 7f4d 383d 31f9 a93d
000000f0: 0ef2 c13a eb17 2e3e 98a1 d23d 4459 fb3d
00000100: 6abe 823e 2c9c 5b3e d3ca b83d bc2e 9c3d
00000110: 127d b73d fd4a 2a3e a393 103e 97e8 8f3d
00000120: 91c0 b43d 2e2a a73d e0eb 553e fe5f a53d
00000130: ce3d ac3d abbc 3e3e 99e6 453e a8ff 3b3c
00000140: b791 de3d 9f75 133e dc2f bc3d 7377 e7bc
00000150: 6f02 c43d 342c f73d 4b88 293d a6d7 6c3d
00000160: 2fd1 473d cb78 223e 6820 003d 2fe4 673e
00000170: 1ef5 763e 003e 7b3e 95b4 db3b a51b 0d3e
00000180: b8cc 9a3d 49d9 6a3e 7863 26bd e271 d93d
00000190: 2159 8f3d 8a88 e4bc 90fc 3ebe d1df d43d
000001a0: c47d c43d 866e 053e d412 103d 463e c43d
000001b0: c893 133e d88b a2bc 5887 ab3d e94b e33c
000001c0: df95 28be 79e8 28bd d92e 613e 1668 7cbd
000001d0: 6574 32bd b31c 733d 4b91 9cbd 6a76 5ebb
000001e0: ea43 52bd 8d4b 19be 0bf2 26be 85c0 b03d
000001f0: 3c3b 48bd ba18 93bd 1da1 0dbe 2578 54bd
00000200: e991 b53c 855b 4e3b eaa4 febc 0552 f3bd
00000210: a77d a6bd a25c 5bbc 7617 6b3d 1538 23be
00000220: 2a41 f1bd 8892 bfbd cd99 2abe 7047 f9bd
00000230: 1ec0 1f3d 98a3 853d 86ae 62be 73c4 d4b9
00000240: 0b25 73be 6692 8fbe bb05 13be 1711 52be
00000250: 2246 36be 7299 7bbe f475 26be d9cb 973d
00000260: d962 9cbe 73c9 70be 1473 44be 6fa3 71be
00000270: d050 06be 7151 a73c c512 473e 9bc1 b23c
00000280: a3d7 923d a630 cb3d 5944 09be 9791 16bd
00000290: 5c19 1b3e 7273 1bbd c502 c8bc 3c30 47be
000002a0: 3b51 97be 5b9e 0fbd 2c8a 2d3e 9f81 d4bd
000002b0: 4ce9 31be 2a5a 2c3d 53c4 f93d 9a3d 38be
000002c0: 2734 11be 1b37 4ebe 2261 e23d 6acc abbc
000002d0: a255 d7bd 2250 1d3e ce04 86be a335 173e
000002e0: 1f39 003d 3e25 8fbd a39c 38bd f14d 2cbe
000002f0: ce5d a2bd 3925 11bd b548 343e 2a79 da3c
00000300: ab1f 03be 44bf 583d 1694 b03c 5f14 e2bd
00000310: 9443 b6bd 2b2b 14bd 0074 9238 c7e1 9e3d
00000320: 81be d2bd 984c 213e 757b b43d baac e1bd
00000330: 8856 ebbd 69db 863c 699e e2bd 182b 443e
00000340: ffb9 4dbe e314 1abe 5d2b 15bd 3421 113e
00000350: 8045 43bc e4f4 adbb a55b 543d 3622 e5bd
00000360: 4111 8e3d 7783 a8bd 0294 20be f96f 01bc
00000370: 821d dc3c 584e acbd 0706 8e3d 8dc5 a4bd
00000380: 6d01 353c abb9 ad3d d19e 27bd 8f80 6fbd
00000390: b691 133e 0888 e9bd f37e 373e 31f4 84bc
000003a0: 89e3 afbd bcb4 c13c 26b3 1a3e 2c36 adbb
000003b0: 0ebd 72bc c213 553d 5e37 1f3d 5d6d 80bd
000003c0: b7a8 b33c 9d21 1fbe cc43 1d3d 69e0 bf3d
000003d0: 1672 fabc c84a e7bc 3735 ebbc b02e a33d
000003e0: 61af 9bbd c9f5 f63d e3da afbd 3ee6 a0bd
000003f0: 2b58 963d 3715 4dbd 7438 353d dad3 26bd

weight_ih_l0_reverse f4 [400, 100]
0.024388382 -0.029864293 -0.12434804 -0.06934114 0.0065644523 0.02140821 -0.043950688 0.21177974
-0.16895717 -0.16687371 0.08995194 -0.11751742 0.0015778176 -0.13063098 0.02144262 -0.07254817
0.024561496 -0.010918605 0.04544455 -0.036385193 0.046840243 -0.1789569 -0.18056183 0.027139727
-0.027432064 0.026530927 0.20651919 -0.11509382 0.051069334 -0.04141022 -0.04261186 -0.1717375
0.0017272236 0.20420012 0.00370863 0.20011364 -0.1028515 0.16996884 -0.051879156 0.020809922
-0.24294694 0.058071118 0.15186973 -0.009203001 -0.04590381 0.05197076 0.14339034 -0.06804969
-0.061173193 -0.051277377 -0.14589576 -0.11531877 -0.17044307 0.06149438 0.07877064 0.05989454
0.09973691 0.010566577 -0.05998587 -0.06460174 0.057574105 -0.20206656 -0.20973043 -0.026243243
-0.0866323 0.036397442 0.17847373 -0.12291252 -0.016383741 -0.12705435 -0.073655695 0.17336778
-0.12377774 -0.1739005 0.13907045 0.20390706 0.09155585 0.05409941 -0.0897223 -0.08615738
-0.04806013 -0.299332 -0.034550887 -0.09172956 0.028455555 0.13402142 -0.07584672 -0.10357583
0.0723503 0.08117923 0.029440472 -0.16163662 -0.09009261 0.14568907 -0.02329343 -0.09431406
0.052204557 0.062325634 -0.0838776 -0.097443685 0.07800571 0.018624097 0.14052059 0.17274891
0.1529817 0.13211477 -0.027051007 -0.19563301 -0.10383341 -0.08147389 -0.055112705 0.07147691
0.05775959 0.08443036 0.047931854 0.20079128 -0.07403337 0.17768595 0.1620876 -0.107479446
-0.19820559 0.009121244 -0.21247374 0.0325618 -0.0020224263 -0.023165403 0.060213946 -0.054276977
-0.13796397 0.025255963 -0.03098016 -0.10832489 0.0941499 -0.021610435 0.14057958 -0.044625115
-0.0682923 0.16318089 -0.01062129 0.04863912 0.17285928 -0.123256326 0.09667741 -0.051222008
0.017032467 -0.06417663 0.12153703 -0.0052913288 -0.0077776713 -0.14108501 -0.016299313 -0.16189489
0.3122185 0.042357124 0.11274247 -0.20833856 0.061895285 0.14412811 0.0016678263 0.10374622
0.103644796 -0.042692363 0.040975634 0.13341215 -0.14643621 0.06733925 -0.025954701 -0.19531298
-0.084258236 -0.14821416 0.14653558 0.15133907 -0.25000444 0.00053896615 0.037341975 -0.13604301
-0.090183124 -0.06462915 -0.22360857 -0.033774383 0.14594151 0.23557054 0.100885086 0.0857401
0.13950524 0.062576085 0.11030213 -0.03636117 0.06374568 -0.038345017 -0.06450278 -0.07115851
0.042582437 -0.18235976 0.17771427 0.09610415 0.05160164 -0.25717416 0.038612995 -0.16911171
-0.23109597 -0.018485174 -0.06417788 -0.271093 -0.010039648 -0.13433428 -0.09589207 0.10817344
-0.14720902 -0.19181885 -0.009753128 -0.09315378 -0.12419808 0.032417748 0.03731416 -0.11175198
-0.021507835 0.029793853 0.08744555 -0.095436946 0.19276175 -0.262364 0.10954245 -0.1113241
-0.11776482 -0.0019582002 0.14024675 0.014361035 -0.005677373 0.05843139 0.051553763 0.15857337
-0.043756757 0.18579869 0.05896196 0.13416666 -0.08827411 0.14508437 -0.12801722 -0.008530741
-0.17580009 -0.058519386 0.15957782 0.031908285 -0.085061505 -0.02725299 0.12702549 0.08931973
-0.0857368 0.019458579 -0.054959897 0.21782817 -0.2868109 0.16480458 -0.14207095 0.14737839
00000000: 25ca c73c f6a5 f4bc 2faa febd ba02 8ebd
00000010: 9e1a d73b 4560 af3c a305 34bd cadc 583e
00000020: 1c03 2dbe f1e0 2abe b938 b83d f9ac f0bd
00000030: c6ce ce3a 21c4 05be 6fa8 af3c 2394 94bd
00000040: 3135 c93c f3e3 32bc 1124 3a3d a408 15bd
00000050: 8edb 3f3d 7a40 37be 33e5 38be 2254 de3c
00000060: 35b9 e0bc 6357 d93c c479 533e 4fb6 ebbd
00000070: 142e 513d c39d 29bd c689 2ebd f5db 2fbe
00000080: 0264 e23a d619 513e 7d0c 733b 97ea 4c3e
00000090: cfa3 d2bd 500c 2e3e 3d7f 54bd 9279 aa3c
000000a0: 15c7 78be fbdb 6d3d bd83 1b3e 2fc8 16bc
000000b0: a205 3cbd 4bdf 543d ebd4 123e a35d 8bbd
000000c0: be90 7abd 3a08 52bd b365 15be 3f2c ecbd
000000d0: a188 2ebe 88e1 7b3d 8052 a13d fa53 753d
000000e0: dd42 cc3d 701f 2d3c beb3 75bd eb4d 84bd
000000f0: d3d2 6b3d 89ea 4ebe 93c3 56be 12fc d6bc
00000100: 466c b1bd 7c15 153d d1c1 363e 8fb9 fbbd
00000110: 3237 86bc 891a 02be ccd8 96bd 5387 313e
00000120: 2f7f fdbd f912 32be 7c68 0e3e 03cd 503e
00000130: a281 bb3d 5897 5d3d 53c0 b7bd 4873 b0bd
00000140: b3da 44bd 0b42 99be 3b85 0dbd b5dc bbbd
00000150: a01b e93c e93c 093e 8655 9bbd 911f d4bd
00000160: 652c 943d 4c41 a63d 252d f13c 1284 25be
00000170: 7982 b8bd 842f 153e ddd1 bebc bb27 c1bd
00000180: 72d4 553d 2a49 7f3d 05c8 abbd 8e90 c7bd
00000190: 75c1 9f3d 9091 983c a1e4 0f3e 17e5 303e
000001a0: 3ca7 1c3e 1849 073e 139a ddbc 0554 48be
000001b0: 9ca6 d4bd c8db a6bd dcbd 61bd 7c62 923d
000001c0: 5295 6c3d d3e9 ac3d 3154 443d 3b9c 4d3e
000001d0: cf9e 97bd 4ef3 353e 4bfa 253e 2f1e dcbd
000001e0: 68f6 4abe 4571 153c b792 59be 865f 053d
000001f0: af8a 04bb 5fc5 bdbc e6a2 763d 8951 5ebd
00000200: 6d46 0dbe 98e5 ce3c 1bca fdbc 71d9 ddbd
00000210: aad1 c03d 5e08 b1bc 18f4 0f3e d3c8 36bd
00000220: d5dc 8bbd e418 273e eb04 2ebc d039 473d
00000230: 0602 313e d06d fcbd cefe c53d 2bce 51bd
00000240: ac87 8b3c 096f 83bd 68e8 f83d e262 adbb
00000250: d6db febb 9778 10be 2386 85bc c6c7 25be
00000260: 1adb 9f3e aa7e 2d3d 86e5 e63d b456 55be
00000270: e985 7d3d 5296 133e f79a da3a e678 d43d
00000280: b943 d43d 30de 2ebd 11d6 273d 329d 083e
00000290: 60f3 15be 29e9 893d f49e d4bc 2000 48be
000002a0: 958f acbd 74c5 17be 6c0d 163e a1f8 1a3e
000002b0: 9500 80be 6849 0d3a e6f3 183d dc4e 0bbe
000002c0: eeb1 b8bd 4a5c 84bd a5f9 64be 0257 0abd
000002d0: b171 153e 6739 713e d79c ce3d 8198 af3d
000002e0: 76da 0e3e e427 803d 15e6 e13d 73ef 14bd
000002f0: 188d 823d aa0f 1dbd 091a 84bd 8ebb 91bd
00000300: ec6a 2e3d 84bc 3abe bbfa 353e 41d2 c43d
00000310: 3e5c 533d 55ac 83be a928 1e3d 9f2b 2dbe
00000320: 6ca4 6cbe 386e 97bc b16f 83bd b4cc 8abe
00000330: 567d 24bc ed8e 09be 1063 c4bd 098a dd3d
00000340: f6bd 16be 296c 44be 95cb 1fbc 69c7 bebd
00000350: 905b febd 79c8 043d bcd6 183d 39de e4bd
00000360: 3331 b0bc 3d12 f43c a716 b33d 7274 c3bd
00000370: 5663 453e 9354 86be cb57 e03d e4fd e3bd
00000380: af2e f1bd 2655 00bb d89c 0f3e 8c4a 6b3c
00000390: 4209 babb c155 6f3d 0a2a 533d 0f61 223e
000003a0: 493a 33bd 0342 3e3e 1982 713d fc62 093e
000003b0: 0ec9 b4bd ff90 143e f216 03be 85c4 0bbc
000003c0: f004 34be 06b2 6fbd 5e68 233e 43b2 023d
000003d0: ba34 aebd aa41 dfbc f812 023e 43ed b63d
000003e0: c796 afbd 9967 9f3c a11d 61bd 590e 5f3e
000003f0: e1d8 92be 88c2 283e 0c7b 11be 5cea 163e

weight_hh_l0_reverse f4 [400, 100]
0.10363299 -0.17346527 -0.06177943 0.041981924 0.07409535 0.13221583 -0.19760627 0.2059114
-0.14594276 0.026169596 -0.1821871 0.12096173 -0.084186 0.19779108 -0.018599374 0.04178018
-0.11386931 -0.11014474 -0.13319619 0.07508327 0.13263218 0.071403295 -0.04052566 0.14857432
-0.106934674 0.101972096 0.08882725 0.1469378 0.20587192 0.06687949 0.17403233 0.17232451
-0.18934329 -0.08935734 0.087815434 0.082152754 0.1666463 -0.07233725 -0.053435337 -0.23460566
0.22836241 0.08086003 -0.11217907 -0.097823784 -0.18827456 -0.23630945 0.17103751 -0.13783693
-0.090816654 -0.13244903 -0.17291489 0.076197 -0.11614599 0.18239474 -0.23710017 -0.15904514
0.18963058 -0.06816363 -0.03356805 -0.10355759 -0.12346418 -0.21624978 0.23453434 0.09347442
-0.12614998 0.26672336 -0.18469983 0.16683766 -0.19584937 -0.17061809 -0.13101846 -0.06528889
0.05736682 -0.25570884 0.27260166 -0.06966328 0.052405793 0.18441968 -0.16359632 -0.121181816
-0.06952264 0.27325758 -0.26361907 -0.03453455 -0.008333849 -0.20593499 -0.0471411 0.15508156
0.09433001 0.24510813 -0.07535272 0.17091063 0.10065989 -0.016718928 0.06731261 -0.031586565
-0.008228301 0.16212048 0.2164469 -0.05742728 0.15570016 -0.095385894 -0.09107075 0.023493553
0.26351604 0.15609844 -0.13472652 0.22751662 -0.12737297 -0.22571401 -0.1135671 0.11659117
-0.14629667 0.08268631 -0.14847411 0.1519465 -0.20189135 -0.15636031 -0.18700996 0.12558529
0.13424532 0.012339347 0.26045597 0.10341105 -0.17444977 0.11090685 0.014367655 0.08486154
0.06421776 0.24861401 0.22726683 0.20583166 -0.078726605 -0.17033605 0.14326078 -0.020170456
0.15194854 0.21650904 0.024174057 -0.031928036 0.3024481 0.18278973 -0.012438946 -0.03260479
0.028435756 -0.2251894 0.038980182 -0.07944126 0.020747721 0.09789621 0.1732628 0.21401908
-0.018974967 0.23183113 -0.15993057 -0.05520856 0.097062744 -0.12568909 -0.21277374 -0.11172869
-0.15371796 -0.09150398 0.023325711 0.28801385 -0.23067759 0.25450855 -0.09664424 0.12278194
-0.04680419 -0.16043097 -0.0026465293 -0.15520371 0.31140694 -0.23524077 0.26813602 -0.0017285917
0.06278056 0.16678835 -0.13832285 0.09281788 -0.116234064 0.23434407 -0.26053172 0.042162
0.29178694 -0.27175206 -0.057346433 0.23920208 0.19812159 0.13414703 -0.109343715 0.13653618
0.15052046 -0.12601918 -0.109401636 -0.09050977 -0.18401046 0.21068555 0.10381523 0.05725919
0.12598692 -0.09608415 -0.054083843 0.006755667 0.25789592 -0.02122498 -0.14424698 0.038466267
-0.089369796 -0.13175988 -0.110029064 0.067702934 0.0121184215 0.08005594 -0.12251916 -0.07453529
0.035919942 -0.00070785166 -0.08565046 -0.018472986 0.0007328582 -0.02759347 0.214351 -0.05311421
-0.08079615 0.015884196 -0.03122349 0.021755097 -0.018896876 0.1611947 0.09520735 0.07115074
-0.12882529 0.031091206 0.020138524 0.04403902 0.062422253 0.09297477 -0.09927952 -0.098632865
0.049901783 -0.014031031 0.067896605 -0.08310744 0.06945761 -0.013380868 0.050584264 -0.006579336
0.25615168 0.016587203 0.1638852 0.0011323564 -0.12802999 0.04472081 -0.0067993402 0.16785309
00000000: 883d d43d e1a0 31be 6d0c 7dbd 3df5 2b3d
00000010: 4ebf 973d 9663 073e 4c59 4abe 70da 523e
00000020: 0572 15be 9f61 d63c 418f 3abe c9ba f73d
00000030: b669 acbd bf89 4a3e b75d 98bc b221 2b3d
00000040: 5034 e9bd 9193 e1bd 9564 08be 42c5 993d
00000050: bbd0 073e e43b 923d 3cfe 25bd de23 183e
00000060: 9100 dbbd bfd6 d03d 10eb b53d dd76 163e
00000070: 17d0 523e 1df8 883d 8835 323e d675 303e
00000080: 35e3 41be fb00 b7bd 94d8 b33d b43f a83d
00000090: 54a5 2a3e 8d25 94bd 03df 5abd 773c 70be
000000a0: d6d7 693e f299 a53d 24be e5bd d657 c8bd
000000b0: 0ccb 40be 1bfb 71be 7524 2f3e 2025 0dbe
000000c0: 15fe b9bd b8a0 07be 9a10 31be 2c0d 9c3d
000000d0: f3dd edbd b0c5 3a3e 63ca 72be bbdc 22be
000000e0: 852e 423e 6099 8bbd a77e 09bd 0016 d4bd
000000f0: cada fcbd 9570 5dbe c529 703e 846f bf3d
00000100: 762d 01be f78f 883e f421 3dbe 7ed7 2a3e
00000110: bd8c 48be 82b6 2ebe b429 06be 2eb6 85bd
00000120: 78f9 6a3d 45ec 82be 7292 8b3e 9fab 8ebd
00000130: 75a7 563d 83d8 3c3e cb85 27be 2c2e f8bd
00000140: e361 8ebd 6be8 8b3e 14f9 86be 1a74 0dbd
00000150: b28a 08bc 9fe0 52be 0717 41bd b3cd 1e3e
00000160: 1830 c13d a0fd 7a3e 8752 9abd 3203 2f3e
00000170: c626 ce3d 22f6 88bc 32db 893d ea60 01bd
00000180: ffcf 06bc e902 263e 42a4 5d3e de38 6bbd
00000190: dd6f 1f3e ae59 c3bd 4d83 babd 8d75 c03c
000001a0: 93eb 863e 45d8 1f3e c0f5 09be 1efa 683e
000001b0: 0f6e 02be 9321 67be de95 e8bd 5ac7 ee3d
000001c0: cbce 15be 7157 a93d 9909 18be dd97 1b3e
000001d0: 9bbc 4ebe eb1c 20be 8a7f 3fbe 6e99 003e
000001e0: 9b77 093e f92a 4a3c 7c5a 853e 2cc9 d33d
000001f0: f6a2 32be 2123 e33d 5066 6b3c e3cb ad3d
00000200: 9a84 833d ac94 7e3e a3b8 683e 89c5 523e
00000210: 6a3b a1bd 936c 2ebe f4b2 123e 833c a5bc
00000220: 6698 1b3e 8cb4 5d3e ac08 c63c f9c6 02bd
00000230: 7ada 9a3e 3b2d 3b3e b9cc 4bbc 9a8c 05bd
00000240: 1af2 e83c 0d98 66be afa9 1f3d 19b2 a2bd
00000250: 20f7 a93c cf7d c83d ce6b 313e d127 5b3e
00000260: 6471 9bbc 2465 6d3e d7c4 23be 5f22 62bd
00000270: d5c8 c63d a4b4 00be 5ce1 59be 03d2 e4bd
00000280: 3e68 1dbe 7066 bbbd 9015 bf3c 8d76 933e
00000290: bf36 6cbe f24e 823e 6aed c5bd 1975 fb3d
000002a0: c0b5 3fbd 0448 24be 6571 2dbb b9ed 1ebe
000002b0: bb70 9f3e f5e2 70be 2049 893e ea91 e2ba
000002c0: 1893 803d 91ca 2a3e 81a4 0dbe 4d17 be3d
000002d0: 200c eebd e4f7 6f3e 6a64 85be 10b2 2c3d
000002e0: 1965 953e 1623 8bbe 18e4 6abd 64f1 743e
000002f0: 63e0 4a3e d75d 093e 99ef dfbd 24d0 0b3e
00000300: 0922 1a3e 2c0b 01be f70d e0bd 305d b9bd
00000310: 3d6d 3cbe f4bd 573e 149d d43d 9d88 6a3d
00000320: b702 013e c4c7 c4bd 0587 5dbd a45e dd3b
00000330: ef0a 843e 02e0 adbc 7bb5 13be ce8e 1d3d
00000340: 8307 b7bd 10ec 06be eb56 e1bd d6a7 8a3d
00000350: 588c 463c 5ef4 a33d 53eb fabd f5a5 98bd
00000360: ca20 133d 1f8f 39ba 8269 afbd a954 97bc
00000370: 481d 403a b30b e2bc d47e 5b3e 498e 59bd
00000380: 7478 a5bd 931f 823c 68c8 ffbc bf37 b23c
00000390: 9fcd 9abc 3910 253e 12fc c23d 7bb7 913d
000003a0: c7ea 03be fcb2 fe3c 8cf9 a43c 4262 343d
000003b0: 7aae 7f3d 8e69 be3d 1053 cbbd 0700 cabd
000003c0: d065 4c3d 69e2 65bc 600d 8b3d 3c34 aabd
000003d0: cb3f 8e3d 6e3b 5bbc 7231 4f3d 7897 d7bb
000003e0: 5026 833e e3e1 873c 86d1 273e 936b 943a
000003f0: 4b1a 03be 2b2d 373d 00cd debb aee1 2b3e

bias_ih_l0_reverse f4 [400]
0.21412626 0.21822676 0.080629826 0.18895267 0.04156033 0.06157905 0.037149593 0.14703956
0.12238718 0.09834013 0.09600703 0.08471857 0.10982846 -0.0038829453 0.056506887 -0.04219511
0.19268993 0.08534825 0.0009908162 0.07508521 0.17851552 0.12255849 0.14132765 0.20293917
0.11818047 0.1849602 0.10412952 -0.03682246 0.16519834 0.22499812 -0.0008395683 0.0718018
0.099527046 0.18412374 0.08009615 0.009529493 0.06110799 0.10299591 0.1448372 0.09534098
0.13657898 0.13855454 0.11648476 0.058631185 0.17401129 0.03628937 0.045863476 0.050853096
0.010936666 -0.042182222 0.009597009 0.047779627 0.10113209 0.20477894 0.19887897 0.1470786
0.18181224 0.057561066 0.18281977 0.045857325 0.07869721 0.04729239 0.08427873 0.19204743
0.13947862 -0.007147721 0.124854125 0.054616597 0.049356807 0.14920416 -0.015179477 0.22716969
0.059619676 0.062236287 0.095172584 0.181527 0.09881506 0.12164961 0.14138035 0.118203394
0.1556304 0.030649325 -0.031937853 0.18592817 0.13892011 -0.020222394 0.08345956 0.0037571453
0.10506077 0.06830496 0.045076262 0.17407806 0.048174955 0.008313227 0.17433177 0.054917794
0.030256422 0.039284848 0.21788998 0.013209082 0.08205666 -0.07769602 0.06540668 -0.10691639
-0.07791455 0.038670294 0.1269238 0.15815486 -0.10995905 0.00041376322 -0.08140794 0.0139880525
0.18994185 -0.019876523 -0.04593993 -0.027357744 0.11990215 -0.05329194 0.14003307 0.13495053
0.1248023 0.09536272 0.016994802 0.10794121 0.04912407 0.13968611 -0.1045355 -0.0679669
0.11667541 0.19933023 -0.060033273 -0.061898295 0.08481458 0.14039497 -0.06930393 -0.048011515
-0.051419154 -0.22988763 -0.1297556 -0.040570762 -0.15127514 0.15843168 -0.007784554 -0.023244381
-0.12729013 0.029783776 -0.05648135 0.17341685 -0.16424127 -0.048302528 -0.058916338 -0.00544402
0.11053573 0.19470395 0.07700224 0.22587115 -0.09083083 0.0066134315 -0.044538997 0.04688966
0.060292717 -0.08134489 -0.015265292 -0.2753305 -0.12324032 -0.061729208 0.14004093 0.06856225
-0.20250078 0.17555457 0.070688844 -0.13323006 -0.15984082 -0.15109037 -0.15997335 0.021254463
-0.10201967 0.07925465 -0.07515651 -0.09267118 0.06923203 0.042214338 -0.012665827 -0.19469921
-0.2516697 -0.038599968 -0.25191164 -0.13940513 -0.04135296 0.18707797 0.036786802 0.09846643
-0.04783601 -0.18090294 -0.10283813 -0.20442234 -0.0063781817 0.016570998 -0.035550863 -0.11655144
-0.015183291 -0.098026186 -0.021637369 -0.014859832 0.095481165 0.15485136 -0.07209003 0.20041028
-0.002787995 -0.035146035 0.0413092 0.022767618 -0.019740323 0.06281561 -0.026103867 0.025339203
-0.04433085 -0.03473972 0.006425195 0.23668016 0.053881425 0.09289745 -0.08120517 0.010498221
-0.17405888 -0.0019365579 0.0063023795 0.077707775 0.09464374 0.09022054 0.00033483285 0.004476619
-0.13345931 -0.19744056 0.061329972 0.06980468 0.0003829226 0.15271373 0.05352715 -0.11960984
0.045248605 0.08107077 -0.056660175 -0.16963606 -0.03449734 -0.19370382 0.07227375 -0.1353833
-0.012316913 0.038800415 -0.051128186 0.14582507 -0.08960914 0.013015809 -0.16918735 0.069760986
00000000: ea43 5b3e d676 5f3e 4021 a53d cf7c 413e
00000010: 2a3b 2a3d 503a 7c3d 2c2a 183d 8a91 163e
00000020: 21a6 fa3d 8d66 c93d 559f c43d ee80 ad3d
00000030: beed e03d 0379 7ebb c473 673d c8d4 2cbd
00000040: 8250 453e 10cb ae3d 46de 813a 46c6 993d
00000050: c6cc 363e f2ff fa3d 32b8 103e 49cf 4f3e
00000060: 9a08 f23d 3566 3d3e dc41 d53d 26d3 16bd
00000070: c129 293e e865 663e 7a16 5cba d20c 933d
00000080: d6d4 cb3d ef8a 3c3e 7309 a43d 9721 1c3c
00000090: 5f4c 7a3d 85ef d23d 3450 143e 2242 c33d
000000a0: 5cdb 0b3e 3ee1 0d3e 908f ee3d 4127 703d
000000b0: 0430 323e 2aa4 143d 57db 3b3d 564b 503d
000000c0: b42f 333c 44c7 2cbd c63c 1d3c 92b4 433d
000000d0: 571e cf3d 92b1 513e eea6 4b3e c69b 163e
000000e0: fd2c 3a3e 27c5 6b3d 1b35 3b3e e4d4 3b3d
000000f0: 012c a13d aab5 413d 549a ac3d 15a8 443e
00000100: 7cd3 0e3e 6e37 eabb 85b3 ff3d a7b5 5f3d
00000110: 5d2a 4a3d fac8 183e 57b3 78bc 2c9f 683e
00000120: c333 743d 7aeb 7e3d d8e9 c23d 37e2 393e
00000130: 8d5f ca3d 6e23 f93d 03c6 103e 9f14 f23d
00000140: 935d 1f3e 4b14 fb3c 44d1 02bd f463 3e3e
00000150: 1341 0e3e 6fa9 a5bc d9ec aa3d 703a 763b
00000160: 1a2a d73d 79e3 8b3d e3a1 383d 8541 323e
00000170: 1a53 453d 3434 083c 0784 323e 7bf1 603d
00000180: 51dc f73c 26e9 203d 8d1e 5f3e e86a 583c
00000190: 520d a83d 171f 9fbd f0f3 853d fbf6 dabd
000001a0: aa91 9fbd be64 1e3d 50f8 013e 59f3 213e
000001b0: 3632 e1bd 5cee d839 35b9 a6bd 252e 653c
000001c0: 1e80 423e 17d4 a2bc 822b 3cbd 591d e0bc
000001d0: 428f f53d a648 5abd d464 0f3e 7930 0a3e
000001e0: 5998 ff3d 884d c33d af38 8b3c 4810 dd3d
000001f0: 5236 493d e009 0f3e b516 d6bd 3b32 8bbd
00000200: 84f3 ee3d 391d 4c3e 73e5 75bd 1189 7dbd
00000210: 44b3 ad3d b3c3 0f3e 38ef 8dbd b9a7 44bd
00000220: e49c 52bd aa67 6bbe a7de 04be 872d 26bd
00000230: dfe7 1abe ea3b 223e 9215 ffbb 006b bebc
00000240: 5858 02be 1bfd f33c fd58 67bd 3094 313e
00000250: dd2e 28be dfd8 45bd 4252 71bd c063 b2bb
00000260: 8f60 e23d 7960 473e 5ab3 9d3d c44a 673e
00000270: 8405 babd 7cb5 d83b 866e 36bd 5f0f 403d
00000280: 7ff5 763d 2698 a6bd 461b 7abc 1ff8 8cbe
00000290: 6c65 fcbd c4d7 7cbd e466 0f3e 5d6a 8c3d
000002a0: 5d5c 4fbe 94c4 333e 50c5 903d 766d 08be
000002b0: 50ad 23be 6fb7 1abe 0ed0 23be d71d ae3c
000002c0: b0ef d0bd 4350 a23d a8eb 99bd 63ca bdbd
000002d0: 86c9 8d3d f1e8 2c3d 5484 4fbc 3b5f 47be
000002e0: dada 80be 001b 1ebd 90fa 80be 38c0 0ebe
000002f0: b961 29bd 5e91 3f3e c2ad 163d c5a8 c93d
00000300: b1ef 43bd 9f3e 39be cc9c d2bd 1754 51be
00000310: 1100 d1bb e7bf 873c c89d 11bd 85b2 eebd
00000320: 57c3 78bc f4c1 c8bd da40 b1bc a776 73bc
00000330: a18b c33d 5b91 1e3e f0a3 93bd 5a38 4d3e
00000340: cbb6 36bb 4af5 0fbd d633 293d 2883 ba3c
00000350: 75b6 a1bc 78a5 803d c7d7 d5bc 2994 cf3c
00000360: 4494 35bd 3d4b 0ebd 718a d23b 495c 723e
00000370: c5b2 5c3d 0541 be3d e54e a6bd bb00 2c3c
00000380: 7e3c 32be 1ad4 fdba 3184 ce3b 4125 9f3d
00000390: 94d4 c13d 8cc5 b83d 818c af39 9ab0 923b
000003a0: 8fa9 08be dc2d 4abe 2335 7b3d c2f5 8e3d
000003b0: 00c3 c839 fd60 1c3e 493f 5b3d 01f6 f4bd
000003c0: 9a56 393d 6f08 a63d 8014 68bd 13b5 2dbe
000003d0: 154d 0dbd 4b5a 46be 4304 943d eba1 0abe
000003e0: e1cc 49bc 2fed 1e3d ca6b 51bd 2b53 153e
000003f0: ff84 b7bd 4240 553c 733f 2dbe d9de 8e3d
