models/model.pt (torch_old, 976412 bytes, 11 tensors)

weight f4 [259, 100]
0.88871664 0.16208737 1.2950834 1.5833889 0.8186483 -0.72590727 1.4848202 0.48195714
0.19162202 -0.06840975 -0.45339793 1.6129578 0.6541422 -0.4148525 -1.1268013 0.81503904
1.287848 -0.41127077 -0.1032766 -0.30857497 1.724052 0.9119553 -1.6056086 0.4399341
0.1123469 0.15985556 -0.61727345 -0.97967553 0.4091042 -0.05645329 -1.019979 -0.53737336
0.28428856 1.1738998 0.28424373 1.7825477 1.7804037 0.2642238 -1.3508387 0.4267876
0.20386101 -0.35329098 1.6911027 0.17718595 -0.22846282 -0.88252294 1.265129 1.1193047
0.10188955 -0.25644967 0.68877745 -1.0459467 0.5211807 0.19042252 0.68018144 1.0618633
-0.8565334 -2.3267207 1.4054557 0.38704628 0.5805489 0.99202734 -2.227072 -1.3738618
-0.37862688 -0.74037725 0.36238632 -1.0529312 0.4756945 -1.271912 0.5409305 -1.5779351
2.4884615 0.74263453 2.2426527 -1.2807014 -0.501424 -0.13494627 -0.7823502 0.39387223
0.22994319 0.44092536 1.0775411 -0.6830679 -2.1057818 0.73340434 1.2291551 0.36743346
0.21148075 -1.3877927 1.324501 0.79751194 -1.1573876 0.36496913 -0.5530451 0.52618253
-0.2704149 0.22604351 -0.26814055 -0.17847678 -0.84579235 0.2521457 -0.57133317 0.3310409
0.38851252 -0.5171291 0.17565987 0.44576788 -0.36631125 -1.020853 -1.450679 0.4189159
0.31822416 0.05212832 -1.4027997 0.5964422 0.5066642 0.2933424 0.48183015 -1.4468174
-2.3554645 1.7550875 1.2919006 -0.7164071 -0.9856413 -0.540843 0.7399908 0.59113175
0.29296502 -0.3576972 0.42525354 0.1364936 0.11061165 -0.7258986 -1.5100394 0.55710155
-1.2667383 -1.9928273 0.68249184 0.73210675 -0.059998132 -1.1207447 -2.9056325 2.0554454
-0.0038146107 -0.98228437 -0.09842173 1.1989439 0.05201978 -1.2054621 -0.21769367 -1.2764742
1.4218085 -0.6538389 -1.1994059 -1.2320278 1.5539917 -1.0528255 -0.58019924 -0.63718015
-0.39304265 1.5585991 0.29635423 0.2099468 -0.21935344 -0.227158 -0.02599727 -0.9801687
-0.9469752 -0.84055924 1.207598 0.22591712 0.26007727 -1.1980538 0.14742686 0.9685471
0.90401894 -0.8561671 -0.9139593 -1.6288927 0.85432756 0.6348415 -1.0899596 -0.9131918
-1.302868 0.055873465 1.2299347 0.16731168 1.3344122 1.3742646 1.8966619 -1.4869084
-0.343409 1.5223887 0.6179239 0.024503408 0.18579096 0.48984495 1.6572137 -0.85329944
0.2045781 -0.073477454 -0.28227857 0.45713577 -2.600759 0.16255203 -2.4312937 0.1917268
-0.024287246 -0.6310487 0.6171156 2.0474095 -0.5891031 -0.2803467 -0.95800966 0.34074798
0.8798055 -0.084748514 -0.3186173 0.27629873 -0.41542783 -1.0075881 0.24236806 -1.745026
-0.6386304 -1.1087769 0.22281921 -0.4603384 -0.08520124 -0.2575481 0.7197996 0.59738195
-0.91238123 0.6866317 -0.47393307 0.64502335 -0.3817253 -0.053270876 -1.1311176 -1.5470567
1.6122075 0.0008587546 0.32212833 -1.0142411 0.25917178 -0.69816357 -0.70913106 1.8091723
1.023035 0.6296889 0.15268983 0.31029886 2.0431743 -0.36475906 -0.34408656 0.51529986
00000000: ef82 633f 3bfa 253e 4bc5 a53f 7dac ca3f
00000010: ef92 513f 0fd5 39bf 970e be3f 16c3 f63e
00000020: 9038 443e 691a 8cbd c623 e8be 6775 ce3f
00000030: dd75 273f 8c67 d4be 063b 90bf 66a6 503f
00000040: 34d8 a43f 1592 d2be af82 d3bd 8afd 9dbe
00000050: bcad dc3f e775 693f 9584 cdbf 0b3f e13e
00000060: 2216 e63d 2db1 233e a205 1ebf 04cc 7abf
00000070: 1b76 d13e 913b 67bd ac8e 82bf 4d91 09bf
00000080: 458e 913e 5942 963f 6588 913e 862a e43f
00000090: 45e4 e33f 5848 873e 48e8 acbf e883 da3e
000000a0: f1c0 503e 8ee2 b4be 0e76 d83f 3c70 353e
000000b0: 28f2 69be 06ed 61bf bfef a13f 6045 8f3f
000000c0: 78ab d03d 5f4d 83be b853 303f 95e1 85bf
000000d0: 196c 053f 1ffe 423e 5f20 2e3f 23eb 873f
000000e0: c645 5bbf fee8 14c0 f9e5 b33f ee2a c63e
000000f0: da9e 143f 81f5 7d3f 5988 0ec0 b4da afbf
00000100: 62db c1be 5d89 3dbf b38a b93e 73c6 86bf
00000110: 3b8e f33e 03ce a2bf 6c7a 0a3f c7f9 c9bf
00000120: f442 1f40 4c1d 3e3f 9f87 0f40 06ee a3bf
00000130: 535d 00bf 5b2f 0abe 1a48 48bf 9fa9 c93e
00000140: 3a76 6b3e f8c0 e13e deec 893f 8add 2ebf
00000150: 21c5 06c0 63c0 3b3f f454 9d3f 3d20 bc3e
00000160: 698e 583e 31a3 b1bf 4089 a93f be29 4c3f
00000170: 4725 94bf 3cdd ba3e 5d94 0dbf e6b3 063f
00000180: d273 8abe f377 673e b849 89be 9ec2 36be
00000190: d985 58bf 3e19 813e e442 12bf 317e a93e
000001a0: 1deb c63e 9362 04bf 2ee0 333e b03b e43e
000001b0: 268d bbbe 50ab 82bf d9af b9bf 257c d63e
000001c0: 47ee a23e 8184 553d f18e b3bf 70b0 183f
000001d0: bfb4 013f fa30 963e 71b2 f63e 5031 b9bf
000001e0: eebf 16c0 b5a6 e03f 005d a53f 7566 37bf
000001f0: fd52 7cbf b074 0abf 0970 3d3f 6954 173f
00000200: 83ff 953e 1624 b7be d5ba d93e fac4 0b3e
00000210: 5c88 e23d 7ed4 39bf f948 c1bf 359e 0e3f
00000220: 7b24 a2bf f714 ffbf c9b7 2e3f 596b 3b3f
00000230: 9ac0 75bd 9074 8fbf e2f5 39c0 6b8c 0340
00000240: 8cfe 79bb fd76 7bbf 5591 c9bd fe76 993f
00000250: b112 553d 954c 9abf 17eb 5ebe 8263 a3bf
00000260: d2fd b53f fc61 27bf 2286 99bf 16b3 9dbf
00000270: 33e9 c63f fcc2 86bf f087 14bf 3d1e 23bf
00000280: e33c c9be 2d80 c73f bebb 973e 4bfc 563e
00000290: 309e 60be 1b9c 68be 3af8 d4bc 56ec 7abf
000002a0: f76c 72bf e42e 57bf 9292 9a3f d156 673e
000002b0: d928 853e d459 99bf 11f7 163e b4f2 773f
000002c0: c96d 673f c42d 5bbf 3df9 69bf 8e7f d0bf
000002d0: 36b5 5a3f f984 223f cc83 8bbf f0c6 69bf
000002e0: 61c4 a6bf 93db 643d 806e 9d3f c153 2b3e
000002f0: 05ce aa3f e7e7 af3f d1c5 f23f 0453 bebf
00000300: 4ed3 afbe a2dd c23f 4330 1e3f 5fbb c83c
00000310: fc3f 3e3e f5cc fa3e 941f d43f d571 5abf
00000320: ec7c 513e 597b 96bd d186 90be b30d ea3e
00000330: d672 26c0 0a74 263e 519a 1bc0 0854 443e
00000340: 0cf6 c6bc 688c 21bf 4afb 1d3f c208 0340
00000350: 76cf 16bf 9a89 8fbe 1f40 75bf 8576 ae3e
00000360: ef3a 613f a190 adbd cf21 a3be 0777 8d3e
00000370: f5b2 d4be a6f8 80bf 552f 783e 035d dfbf
00000380: 487d 23bf 67ec 8dbf b82a 643e 7ab1 ebbe
00000390: fd7d aebd 58dd 83be c944 383f 06ee 183f
000003a0: d191 69bf 18c7 2f3f 5ba7 f2be 4020 253f
000003b0: 8071 c3be 9032 5abd 76c8 90bf f405 c6bf
000003c0: d15c ce3f 0c1e 613a 01ee a43e a7d2 81bf
000003d0: 2ab2 843e d9ba 32bf 9d89 35bf f592 e73f
000003e0: d0f2 823f 4b33 213f b95a 1c3e 7edf 9e3e
000003f0: 5ec3 0240 b3c1 babe 1d2c b0be b1ea 033f

weight_ih_l0 f4 [400, 100]
-0.06394501 -0.018458307 0.1357967 0.063169084 0.054547954 -0.092710026 -0.042884894 -0.026780905
0.22795957 0.08782094 0.15885489 0.0071535837 0.28832126 0.0297944 0.05402008 -0.009210112
-5.5697747e-06 0.16345733 -0.19085093 -0.07326113 0.008179201 -0.08029342 0.01847321 -0.07687008
0.0988956 -0.14614622 -0.19764408 0.05719454 0.22234954 -0.18652526 -0.056832768 0.04431605
-0.04524865 0.032614272 -0.12365136 0.07392686 0.030539792 -0.14348646 -0.09445482 0.20081711
-0.07658905 -0.135139 -0.021558166 0.082532525 0.049525242 -0.032535426 0.07026695 0.038787115
-0.14462289 0.18784222 0.073467515 -0.054748062 0.08972988 0.04074043 0.110213056 0.13223366
0.0008622969 -0.08814821 0.08807137 -0.16312863 0.06112093 0.14778246 -0.090400495 -0.16942151
-0.13869122 -0.17382494 0.21997514 -0.14404872 0.017406203 -0.17091456 0.07754271 -0.14895375
0.05465701 -0.042172942 0.18814242 -0.118894875 0.033613298 0.27073103 -0.046908755 0.1737936
0.1273459 0.078623876 -0.015011616 -0.08031418 -0.09055544 0.07897542 0.11856016 -0.047920734
-0.07789425 -0.121556014 0.0034621018 0.1266085 0.061928835 -0.13734277 -0.1661844 0.1259267
-0.17149484 -0.12936912 -0.033199828 -0.21293887 0.16932367 -0.06284384 0.035627697 0.011347756
0.022128303 -0.14185143 0.029092707 -0.033752546 0.17699203 -0.26840183 -0.086197205 -0.025851037
0.050397597 -0.12964185 -0.12866755 0.07242788 0.13379751 -0.12247351 -0.10327131 -0.028275121
0.09915568 0.0052552614 -0.024558462 0.11555522 -0.1990887 -0.2236361 -0.12072126 -0.15565242
-0.014278881 0.34611246 -0.06686129 -0.070444666 0.09324625 0.15504839 -0.062328108 0.01785231
0.08978655 0.09115953 -0.070033915 -0.014693904 0.029846197 -0.21836022 0.12953083 0.09529399
-0.10564462 -0.061545346 0.036247965 0.17281307 -0.0047865896 -0.1587688 0.055998534 -0.13550094
0.09890228 0.13755068 0.15795052 0.13016891 -0.18328184 -0.10661049 -0.00058849057 -0.0071594864
-0.016932042 0.0864982 -0.051298458 -0.14334635 -0.022181327 -0.08113228 0.04222661 -0.00086766074
0.029753046 -0.01043626 0.1606381 -0.09150291 0.017232442 0.16671559 0.05933779 -0.16182294
-0.08661631 -0.20653452 -0.11416923 0.03886065 -0.023658076 0.117724374 -0.0065735257 -0.045975637
-0.08849449 0.10284145 0.01030026 0.007322436 0.05733101 -0.09234648 0.09232842 0.044286013
-0.10711723 -0.0100164525 0.032141794 0.20077986 0.0362137 0.05774539 -0.067232676 0.1485865
-0.106696546 -0.16186582 -0.036975995 -0.06927642 -0.052285995 0.10602814 -0.18750668 -0.019044152
-0.24549225 -0.10902434 0.32708615 -0.09661245 -0.03082113 -0.16636541 0.23727019 0.13710275
-0.055982593 -0.20022817 -0.052472077 0.18497992 -0.26865965 0.15891851 0.10357589 -0.0765471
-0.28205258 -0.08509233 -0.09982064 -0.034318358 -0.026816243 0.066032544 0.08085106 -0.008516631
-0.08577136 -0.17102595 0.019145302 -0.20729953 -0.18258344 -0.22883426 -0.13694842 -0.057893768
0.08023255 0.13226654 -0.14289431 -0.018757487 -0.14940004 -0.00566002 0.016905775 -0.11013497
0.038088784 0.35381478 0.17884009 0.15840244 0.08286052 0.047872934 0.20945409 -0.15343787
00000000: 9af5 82bd e035 97bc 4a0e 0b3e cb5e 813d
00000010: ad6d 5f3d c1de bdbd 12a8 2fbd a163 dbbc
00000020: 3c6e 693e 77db b33d dbaa 223e 9c68 ea3b
00000030: d89e 933e 6313 f43c 2944 5d3d 02e6 16bc
00000040: 00e4 bab6 5c61 273e 6d6e 43be ee09 96bd
00000050: 0e02 063c e070 a4bd 2155 973c 0f6e 9dbd
00000060: c789 ca3d 5ba7 15be 3663 4abe d244 6a3d
00000070: 99af 633e 7a00 3fbe 7ac9 68bd bf84 353d
00000080: a656 39bd 8b96 053d ed3c fdbd f766 973d
00000090: 962e fa3c 1dee 12be 8771 c1bd 00a3 4d3e
000000a0: b8da 9cbd e161 0abe c09a b0bc d006 a93d
000000b0: fbda 4a3d de43 05bd 1ee8 8f3d 3ddf 1e3d
000000c0: 0618 14be b659 403e 2376 963d 813f 60bd
000000d0: 4dc4 b73d 70df 263d 62b7 e13d 4368 073e
000000e0: c40b 623a 0c87 b4bd c35e b43d 310b 27be
000000f0: f159 7a3d 4954 173e e523 b9bd d57c 2dbe
00000100: 1205 0ebe 2aff 31be 2a41 613e 8281 13be
00000110: 7497 8e3c 3a04 2fbe b6ce 9e3d 5587 18be
00000120: 07e0 5f3d 89bd 2cbd 68a8 403e 287f f3bd
00000130: 19ae 093d 429d 8a3e 6523 40bd f3f6 313e
00000140: f766 023e 8e05 a13d 48f3 75bc c37b a4bd
00000150: 2175 b9bd ddbd a13d abcf f23d 8848 44bd
00000160: 0587 9fbd 5cf2 f8bd 6ee4 623b a9a5 013e
00000170: 17a9 7d3d 95a3 0cbe 3e2c 2abe eef2 003e
00000180: 589c 2fbe 5779 04be 8bfc 07bd a60c 5abe
00000190: 2f63 2d3e 45b4 80bd 59ee 113d f0eb 393c
000001a0: 6a46 b53c 8041 11be d453 ee3c 1c40 0abd
000001b0: 663d 353e f76b 89be 2988 b0bd 8ec5 d3bc
000001c0: b66d 4e3d d5c0 04be 6dc1 03be 1155 943d
000001d0: 3702 093e 64d3 fabd e97f d3bd 3aa1 e7bc
000001e0: 2212 cb3d 5434 ac3b d42e c9bc 37a8 ec3d
000001f0: e8dd 4bbe dd00 65be b53c f7bd 5963 1fbe
00000200: f8f1 69bc a735 b13e 92ee 88bd 4b45 90bd
00000210: e4f7 be3d 01c5 1e3e c24b 7fbd 023f 923c
00000220: 03e2 b73d d9b1 ba3d f16d 8fbd b3be 70bc
00000230: 0380 f43c d299 5fbe bba3 043e 7f29 c33d
00000240: 355c d8bd f916 7cbd bf78 143d e9f5 303e
00000250: d3d8 9cbb 4a94 22be b85e 653d c2c0 0abe
00000260: 478d ca3d 16da 0c3e c8bd 213e 004b 053e
00000270: 3cae 3bbe 9a56 dabd ef44 1aba 209a eabb
00000280: 11b5 8abc f825 b13d 551e 52bd 63c9 12be
00000290: 9db5 b5bc ae28 a6bd cff5 2c3d ba73 63ba
000002a0: a9bc f33c d9fc 2abc 507e 243e e165 bbbd
000002b0: 0d2b 8d3c 7eb7 2a3e 2f0c 733d eab4 25be
000002c0: e463 b1bd c97d 53be 8fd1 e9bd 582c 1f3d
000002d0: 95ce c1bc 7a19 f13d bb66 d7bb f350 3cbd
000002e0: 993c b5bd 8a9e d23d 6cc2 283c 0cf1 ef3b
000002f0: ecd3 6a3d 2720 bdbd af16 bd3d 4065 353d
00000300: 4760 dbbd 0c1c 24bc 1da7 033d 3c99 4d3e
00000310: d154 143d 6e86 6c3d 49b1 89bd 0f27 183e
00000320: b883 dabd 27c0 25be 2474 17bd cce0 8dbd
00000330: d729 56bd 4825 d93d c001 40be 7b02 9cbc
00000340: 5262 7bbe 2748 dfbd d677 a73e c0dc c5bd
00000350: 987c fcbc b25b 2abe f5f6 723e aa64 0c3e
00000360: 014e 65bd 9d08 4dbe f6ec 56bd 606b 3d3e
00000370: c28d 89be 89bb 223e 991f d43d bac4 9cbd
00000380: 3269 90be e344 aebd c46e ccbd 6891 0cbd
00000390: bdad dbbc 123c 873d 3e95 a53d 5789 0bbc
000003a0: e5a8 afbd 6d21 2fbe 9cd6 9c3c 5446 54be
000003b0: 27f7 3abe 8753 6abe 353c 0cbe 0422 6dbd
000003c0: f750 a43d e170 073e e352 12be 4da9 99bc
000003d0: 53fc 18be b077 b9bb fb7d 8a3c 718e e1bd
000003e0: fc02 1c3d 3627 b53e db21 373e 4034 223e
000003f0: c7b2 a93d 6916 443d 227b 563e d11e 1dbe

weight_hh_l0 f4 [400, 100]
0.1299359 0.13493706 -0.03869504 -0.15062572 -0.06934714 0.07314586 0.093993634 0.055589482
-0.093713835 -0.027477313 0.015010815 0.046281062 -0.098713815 -0.008004147 0.05147505 0.037316687
-0.050610755 0.035517745 0.0055787954 -0.025850024 0.07702653 0.07964244 0.17068766 0.0024005107
-0.0034754006 -0.19370204 -0.048939053 0.047195867 -0.029137598 0.08146263 -0.08936835 0.076484546
0.023803076 0.06560036 0.028073084 -0.015624371 0.024145072 0.108527586 0.12925275 0.0047221733
-0.059488676 -0.020798504 -0.07945553 -0.08982201 0.06193166 0.034127913 -0.08268113 -0.010886827
0.032474115 -0.23566164 -0.038059212 -0.004398748 0.01675666 -0.09174142 0.037411544 -0.18648167
-0.004145791 0.02001363 -0.25578168 -0.20262088 -0.03161191 0.032138195 -0.034134947 0.10425252
-0.01833936 -0.04302097 0.0034411815 0.047368526 0.036411162 -0.011387332 0.07236055 -0.013163011
0.08423049 -0.0065725567 -0.12546934 0.077328525 -0.10926579 0.07445992 0.05631149 0.062300358
0.052177247 -0.083771005 0.057916414 -0.11126369 0.04967544 -0.07316857 -0.08477585 0.020477047
-0.109462835 0.0036053285 0.061146144 0.09705429 0.120266005 0.052816898 0.084168226 -0.068334736
-0.07630283 -0.032053355 0.0033675493 0.08879744 0.042120967 0.11678551 0.092709966 0.13231395
0.03856807 0.10275292 0.026832672 0.038856056 -0.09341092 -0.0013121754 0.032022987 0.11840531
-0.019036183 -0.005270224 0.0375036 0.09756179 -0.098261364 0.102333285 -0.008394164 0.030279426
-0.017094932 0.035353284 -0.04806507 -0.06614944 0.019998256 -0.14981447 -0.0574095 0.007515835
-0.078705594 0.03927697 0.08155254 0.067899674 -0.060956564 0.07570789 0.059216954 -0.0138186095
-0.023697726 -0.09477199 0.13496527 0.04003308 0.036388572 -0.095209494 -0.04886337 0.012178778
0.06469125 -0.050479926 -0.06457403 0.025920182 0.052873734 -0.07858387 0.07346934 -0.00053716544
-0.06255641 -0.12868676 0.0035649466 -0.05288035 -0.033683136 0.044139963 -0.053598385 0.017386645
-0.08535963 0.022326458 -0.0147974035 -0.09088605 -0.0135632465 -0.007916092 -0.10114882 -0.05799776
-0.09818918 -0.06903244 0.10293632 0.07823855 0.028441014 0.11229656 0.13787495 0.08769484
-0.07017222 -0.006514433 -0.06633704 -0.03803882 -0.06761811 -0.05880966 0.12923901 0.009459822
-0.10127484 0.006406704 -0.0149031095 -0.0888041 0.017840054 -0.094981216 0.0791229 -0.049695488
-0.0035665326 0.049625773 -0.004340152 0.12665425 -0.0069066184 0.021077747 0.0680325 0.052242193
0.15644866 0.0451386 -0.050052945 -0.34246883 -0.06180191 0.03343396 0.08819997 0.012187292
0.02803743 -0.04301545 -0.016244067 -0.10918046 -0.052658282 -0.14281471 0.062590994 0.18458429
-0.07903526 0.07414053 -0.010143711 0.034084823 0.034693237 -0.08337293 0.055302314 -0.19326386
0.06268003 -0.13129386 -0.2726779 -0.0014518943 0.15675116 0.10235429 -0.3515659 0.072056875
0.07176065 0.21567142 0.009761868 0.097342014 0.1660112 -0.12922102 -0.0065602595 -0.10239778
0.013914457 0.29472348 -0.09822737 -0.07531767 0.01948149 0.14560847 -0.14841756 0.023154853
0.20946303 -0.085546315 -0.05718124 -0.23404066 0.19810368 0.10214809 0.28649396 -0.028853541
00000000: eb0d 053e f12c 0a3e b17e 1ebd a13d 1abe
00000010: e005 8ebd 7fcd 953d bc7f c03d ccb1 633d
00000020: 0aed bfbd 1a18 e1bc ecef 753c 3691 3d3d
00000030: 782a cabd d323 03bc 81d7 523d 62d9 183d
00000040: 394d 4fbd 0e7b 113d 54ce b63b 6ec3 d3bc
00000050: 16c0 9d3d 931b a33d bfc8 2e3e e351 1d3b
00000060: 8cc3 63bb d459 46be 5174 48bd 7450 413d
00000070: f9b1 eebc e1d5 a63d c106 b7bd eea3 9c3d
00000080: abfe c23c 7b59 863d 86f9 e53c 5dfd 7fbc
00000090: e3cb c53c b643 de3d d55a 043e 76bc 9a3b
000000a0: 66aa 73bd a061 aabc 95b9 a2bd 9af4 b7bd
000000b0: 0dac 7d3d b6c9 0b3d b954 a9bd a95e 32bc
000000c0: 9403 053d 4951 71be fae3 1bbd 5f23 90bb
000000d0: 4345 893c ede2 bbbd d93c 193d 0df5 3ebe
000000e0: 6ad9 87bb a0f3 a33c d1f5 82be d97b 4fbe
000000f0: 7d7b 01bd 57a3 033d 16d1 0bbd 5882 d53d
00000100: 6d3c 96bc c236 30bd 7285 613b 8005 423d
00000110: df23 153d ef91 3abc c531 943d aba9 57bc
00000120: 0981 ac3d 9a5e d7bb 097b 00be 6b5e 9e3d
00000130: bec6 dfbd 717e 983d e0a6 663d a92e 7f3d
00000140: cfb7 553d 2290 abbd c339 6d3d 38de e3bd
00000150: 7978 4b3d 67d9 95bd f69e adbd 7bbf a73c
00000160: 0d2e e0bd 6047 6c3b 6174 7a3d 66c4 c63d
00000170: 064e f63d 8856 583d 6460 ac3d 15f3 8bbd
00000180: a844 9cbd 614a 03bd 1ab2 5c3b 6fdb b53d
00000190: 0987 2c3d 3e2d ef3d b9de bd3d 4f7d 073e
000001a0: 8df9 1d3d 1f70 d23d 31d0 db3c 8727 1f3d
000001b0: 394e bfbd 4dfd abba 892a 033d 7c7e f23d
000001c0: c5f1 9bbc d8b1 acbb 609d 193d 7ace c73d
000001d0: 413d c9bd 1d94 d13d ad87 09bc 8f0c f83c
000001e0: ac0a 8cbc 9bce 103d e1df 44bd 5c79 87bd
000001f0: 62d3 a33c f768 19be 3926 6bbd 6547 f63b
00000200: 6630 a1bd e3e0 203d 0505 a73d fc0e 8b3d
00000210: 97ad 79bd bd0c 9b3d 7a8d 723d 7367 62bc
00000220: bc21 c2bc d117 c2bd 5634 0a3e baf9 233d
00000230: 2f0c 153d 32fd c2bd f524 48bd 7f89 473c
00000240: d97c 843d 0ac4 4ebd 643f 84bd 9056 d43c
00000250: 2192 583d 94f0 a0bd 1877 963d 90d0 0cba
00000260: 931d 80bd 76c6 03be e1a1 693b 1199 58bd
00000270: 54f7 09bd 1bcc 343d fb89 5bbd 706e 8e3c
00000280: 08d1 aebd fae5 b63c cf70 72bc 7722 babd
00000290: 6138 5ebc 7fb2 01bc 1d27 cfbd 0f8f 6dbd
000002a0: 6917 c9bd e160 8dbd 47d0 d23d 883b a03d
000002b0: 21fd e83c bdfb e53d 172f 0d3e 5a99 b33d
000002c0: 74b6 8fbd 0677 d5bb b7db 87bd 98ce 1bbd
000002d0: 5d7b 8abd 66e2 70bd 3b57 043e 5ffd 1a3c
000002e0: 2f69 cfbd 54ef d13b 2c2c 74bc edde b5bd
000002f0: 4e25 923c 8385 c2bd 300b a23d 7f8d 4bbd
00000300: 7dbc 69bb 6544 4b3d d537 8ebb a7b1 013e
00000310: ea50 e2bb 3dab ac3c a054 8b3d e9fb 553d
00000320: 1434 203e 41e3 383d 5104 4dbd 1358 afbe
00000330: 0024 7dbd 0cf2 083d 30a2 b43d 35ad 473c
00000340: c1ae e53c f830 30bd 4712 85bc 019a dfbd
00000350: 36b0 57bd 053e 12be b52f 803d aa03 3d3e
00000360: 3ddd a1bd fdd6 973d cf31 26bc 879c 0b3d
00000370: 7f1a 0e3d 6dbf aabd ae84 623d f6e6 45be
00000380: 635e 803d e671 06be 709c 8bbe 7d4d beba
00000390: 6083 203e 209f d13d 7200 b4be 8e92 933d
000003a0: 3ff7 923d f8d8 5c3e 3ef0 1f3c 405b c73d
000003b0: d7fe 293e 8452 04be 72f7 d6bb edb5 d1bd
000003c0: 76f9 633c ffe5 963e 6e2b c9bd 2740 9abd
000003d0: a597 9f3c 631a 153e c6fa 17be 3faf bd3c
000003e0: 7a7d 563e e832 afbd e036 6abd 5ba8 6fbe
000003f0: b1db 4a3e 0533 d13d 56af 923e 435e ecbc

bias_ih_l0 f4 [400]
-0.0038887896 -0.010773612 0.113471486 0.11660215 0.08625702 0.17221656 0.11784955 0.15744649
0.14145015 0.03293704 0.20911856 0.27459943 0.23804022 0.24795043 0.16874124 0.050145857
0.23392843 -0.035720605 0.17080525 0.07605956 0.15266062 0.038595524 0.07869675 0.22869387
0.092794016 0.1857663 0.03248558 0.0897862 0.086537 0.12552506 0.120762676 0.18730323
0.123498365 0.18010183 0.12698689 0.10388896 0.16059148 0.13002065 0.0866305 0.124493495
0.11629396 -0.0187545 0.08986296 0.00639869 0.17136903 0.10185099 0.08921284 0.107245125
0.12026348 0.047857575 0.048341427 0.21979144 0.05543453 0.17911054 0.2200597 0.14029376
0.13193108 0.15556617 0.24405281 0.12445432 0.10332679 0.25830895 0.102204725 0.19580121
0.052268706 0.0846101 0.11960739 0.002151843 0.012958166 0.12153362 0.14446607 0.15995274
0.05338264 0.08343893 -0.055890188 0.05644097 0.07537963 0.11379004 0.010449319 0.20509875
0.12723333 0.09687429 0.1190826 0.120504126 0.16538484 0.1448226 0.04784331 0.12449613
0.16381338 0.06689157 0.17246567 0.066634886 0.11264012 0.15403572 0.023531713 0.07204777
0.13685857 -0.01323736 0.1547213 0.13284098 0.030045418 0.066096134 -0.26941878 -0.076775394
-0.091604106 -0.20559248 -0.119193085 -0.03701462 -0.024845142 -0.22329143 0.08805312 0.00024715342
-0.2405303 0.032658346 -0.20367245 0.05388611 -0.3486225 -0.040388707 0.066139355 -0.15515801
0.072215326 0.05500936 -0.06510637 -0.23737675 -0.030730134 0.14100233 -0.11406872 0.025368785
-0.20198596 0.054943338 0.1064172 -0.0063534947 0.037862208 -0.12145886 -0.026319034 -0.12422918
0.014076056 -0.13915232 0.09065666 -0.24685459 0.0999765 -0.03477397 -0.11248552 0.067131735
-0.012163405 -0.040614318 -0.07601357 0.09326763 0.10244294 -0.18454719 -0.16848904 -0.18670186
0.030209666 0.015456853 -0.25872493 -0.19271523 -0.1445586 -0.06232718 -0.33058476 -0.078947715
-0.22706828 0.035796974 -0.0024132575 0.09143214 -0.16772078 -0.088158675 0.007302566 0.12751986
0.1339688 -0.010889934 -0.16290374 -0.21585543 -0.099050514 0.23593722 0.030726299 0.021857277
0.009102365 0.15976614 -0.04788494 -0.05141511 -0.3189545 0.06346995 -0.2520033 -0.038248044
0.040531207 0.0049051717 -0.23683539 -0.09591687 0.06651647 0.08424359 0.14270678 -0.07269928
-0.31704417 -0.03642152 -0.02191825 -0.010378037 -0.17212814 -0.015394152 0.053416375 -0.18237546
0.060255267 0.14325108 -0.20246515 -0.10247987 -0.030001253 -0.15137756 -0.051736217 0.032986328
0.015865395 -0.14701878 -0.13364892 -0.034339868 0.10669295 -0.16133466 0.13321842 0.18125223
-0.1114862 -0.024777554 -0.00017131981 -0.042739924 0.09903356 -0.025696488 -0.07927309 -0.12964608
-0.100978926 0.036958292 -0.1266521 -0.13346618 0.03929454 0.11228899 -0.1746045 -0.024058772
-0.006566955 0.045462217 -0.07472121 0.09072926 0.13872148 -0.020703234 -0.021015149 0.026186787
-0.020446077 0.15030089 -0.106293455 -0.106930114 -0.008860935 0.05537588 -0.16154724 0.036520697
0.15996289 -0.04635857 0.031775806 -0.13272902 -0.010822373 0.056979828 0.19773477 -0.09134742
00000000: 10db 7ebb ce83 30bc bd63 e83d 1ccd ee3d
00000010: 85a7 b03d 8a59 303e 1b5b f13d a739 213e
00000020: 4fd8 103e fde8 063d 2d23 563e 4c98 8c3e
00000030: d1c0 733e b8e6 7d3e 81ca 2c3e be65 4d3d
00000040: ef8a 6f3e c54f 12bd 92e7 2e3e 1dc5 9b3d
00000050: 1153 1c3e 5716 1e3d c32b a13d ba2e 6a3e
00000060: ca0a be3d 8539 3e3e 990f 053d d4e1 b73d
00000070: 503a b13d a489 003e 6c52 f73d 6bcc 3f3e
00000080: b6ec fc3d 9d6c 383e da08 023e bcc3 d43d
00000090: 1872 243e 2224 053e 556b b13d 72f6 fe3d
000000a0: 872b ee3d 0aa3 99bc 120a b83d 1aac d13b
000000b0: 5d7b 2f3e 4097 d03d 39b5 b63d 55a3 db3d
000000c0: b34c f63d 4e06 443d a901 463d 0211 613e
000000d0: 510f 633d c168 373e 5457 613e 2ba9 0f3e
000000e0: f118 073e bd4c 1f3e fbe8 793e e8e1 fe3d
000000f0: ff9c d33d 1241 843e b650 d13d 1d80 483e
00000100: b617 563d 0f48 ad3d b8f4 f43d ef05 0d3b
00000110: 7d4e 543c 9ee6 f83d eaee 133e a7ca 233e
00000120: c1a7 5a3d 08e2 aa3d 1ced 64bd a62e 673d
00000130: a360 9a3d c10a e93d 9f33 2b3c 6805 523e
00000140: 7449 023e 0766 c63d 94e1 f33d deca f63d
00000150: a55a 293e 604c 143e 59f7 433d d4f7 fe3d
00000160: b2be 273e 73fe 883d d79a 303e df77 883d
00000170: ddaf e63d 8abb 1d3e 94c5 c03c c88d 933d
00000180: a724 0c3e 83e1 58bc 436f 1e3e 7707 083e
00000190: cf21 f63c 695d 873d 42f1 89be 6b3c 9dbd
000001a0: ef9a bbbd d686 52be 811b f4bd a49c 17bd
000001b0: 0a88 cbbc 82a6 64be 3255 b43d 5f94 8139
000001c0: 934d 76be c2c4 053d 838f 50be afb7 5c3d
000001d0: a67e b2be a16e 25bd 1274 873d bee1 1ebe
000001e0: a1e5 933d 7f51 613d 7d56 85bd e412 73be
000001f0: c3bd fbbc ea62 103e dc9c e9bd 33d2 cf3c
00000200: 68d5 4ebe 440c 613d 43f1 d93d fa30 d0bb
00000210: 6715 1b3d 6cbf f8bd 049b d7bc de6b febd
00000220: 429f 663c f27d 0ebe 33aa b93d 73c7 7cbe
00000230: 7bc0 cc3d 266f 0ebd cf5e e6bd 5d7c 893d
00000240: 0549 47bc 335b 26bd 01ad 9bbd 1903 bf3d
00000250: 9bcd d13d f0f9 3cbe 6488 2cbe c62e 3fbe
00000260: 437a f73c be3e 7d3c 9877 84be 2457 45be
00000270: 2b07 14be c94a 7fbd 6842 a9be 57af a1bd
00000280: 9684 68be d99f 123d be27 1ebb c640 bb3d
00000290: ffbe 2bbe 898c b4bd 5d4a ef3b 9194 023e
000002a0: 1e2f 093e b26b 32bc 3dd0 26be 3509 5dbe
000002b0: ffda cabd 8799 713e b8b5 fb3c 080e b33c
000002c0: 1622 153c bc99 233e 0023 44bd a698 52bd
000002d0: 014e a3be 88fc 813d 9406 81be fba9 1cbd
000002e0: 0d04 263d 90bb a03b fa84 72be 1070 c4bd
000002f0: c939 883d e787 ac3d ba21 123e 5ce3 94bd
00000300: 9d53 a2be bb2e 15bd e78d b3bc a408 2abc
00000310: 5c42 30be c137 7cbc 21cb 5a3d a2c0 3abe
00000320: 3ace 763d 69b0 123e 0653 4fbe f7e0 d1bd
00000330: 30c5 f5bc b802 1bbe 5be9 53bd ac1c 073d
00000340: 25f8 813c 178c 16be 43db 08be f6a7 0cbd
00000350: d581 da3d ea34 25be 696a 083e 2f9a 393e
00000360: e052 e4bd 4cfa cabc 50a4 33b9 0f10 2fbd
00000370: 1bd2 ca3d 7181 d2bc ee59 a2bd f1c1 04be
00000380: 0ace cebd 9461 173d 17b1 01be 5cab 08be
00000390: 50f3 203d c5f7 e53d 86cb 32be e716 c5bc
000003a0: 9c2f d7bb 9736 3a3d 6f07 99bd 43d0 b93d
000003b0: 010d 0e3e d499 a9bc f627 acbc ac85 d63c
000003c0: 887e a7bc 7ae8 193e 62b0 d9bd 2dfe dabd
000003d0: 752d 11bc d2d1 623d a46c 25be ba96 153d
000003e0: 50cd 233e 7ce2 3dbd 5927 023d 1eea 07be
000003f0: 5350 31bc ae63 693d fc7a 4a3e 5b14 bbbd

bias_hh_l0 f4 [400]
0.14121054 0.1263444 0.2504693 -0.025073446 0.17328344 0.03541963 0.16965362 -0.024677586
0.008870689 0.110779256 0.19909453 0.18956107 0.21424805 0.14481664 -0.017122932 0.12887236
0.109815806 0.097816594 0.10474712 0.15925376 0.05161157 0.10346353 0.028917927 0.033914823
0.124979734 0.21112478 0.114663646 0.075087294 0.15381946 0.039557736 -0.038721144 0.13964607
0.18701051 0.1265017 -0.041106097 0.09525484 0.06784273 0.18865746 0.014151924 0.24214001
0.0404337 0.08210238 0.100147724 0.012821806 0.046684343 0.14648701 0.10213349 -0.013771097
0.22769758 0.014840666 0.043535 0.20288855 0.11318413 0.17926931 0.063975304 0.072553426
0.15464 0.16565305 0.18769544 0.15530671 0.07355136 0.23036118 0.08856721 0.13669758
0.10861459 0.030501708 0.03876287 -0.0163351 0.12769198 0.09532736 -0.008489248 0.12681125
0.13486713 0.0550317 0.063234635 0.00201472 0.18610664 -0.007802234 -0.010036165 0.093009934
0.1602246 0.13143125 0.14369299 0.15859433 0.08593407 0.11503317 0.085730225 0.15414983
0.092658974 0.12275028 0.20201589 0.07173869 0.10238884 -0.029697767 0.13261116 0.13342226
0.067632124 0.061479453 0.19657204 0.20095322 0.04496288 -0.0299758 -0.23930138 -0.025136985
0.0013284548 -0.19146094 -0.1412428 -0.112581275 -0.01706017 -0.21538922 0.021744825 -0.1610011
-0.20727186 0.13616897 -0.029733108 0.036997255 -0.23629685 -0.07244891 0.034291226 -0.23895903
-0.077329785 -0.00998927 -0.19864401 -0.3163719 -0.038093336 0.094463274 -0.039863948 -0.041142482
-0.046550605 -0.06215116 0.081116006 -0.07039978 -0.003837384 0.007810285 -0.032547038 -0.21301658
0.11264438 -0.11167526 0.07717675 -0.3469726 0.018634593 -0.16934268 -0.01797386 0.15093018
-0.12093357 -0.14031902 -0.059682418 -0.08850303 0.08665212 -0.06812809 -0.10869589 -0.19067562
0.033955824 0.069371276 -0.27448228 -0.21080305 -0.22319703 0.039368823 -0.26461813 -0.082113735
-0.20626803 -0.10542087 0.059541073 0.039135594 -0.22740522 -0.14228883 -0.118461646 0.12483473
0.16859464 0.1792443 -0.12224364 -0.21279995 -0.07495038 0.2693342 -0.09504307 0.056684777
-0.11008654 0.02716659 0.05528441 -0.14670813 -0.24322218 -0.08939516 -0.21628599 -0.019163586
-0.012480689 -0.12661305 -0.092644654 0.0063249283 -0.0026300766 0.017018212 0.12820707 -0.19189905
-0.27549163 -0.07291967 -0.08919092 -0.06553267 -0.1299518 0.08644659 0.011524503 -0.1993263
0.06608333 0.0904821 -0.05943941 -0.14328818 -0.088731006 -0.045385193 0.034677263 0.054280907
-0.090781 -0.040749438 -0.100368656 -0.015305543 0.016364863 0.0018256459 0.12005681 0.19396658
0.06451607 0.11797131 -0.15327978 0.003618887 0.13091971 -0.036005404 -0.032920193 -0.17749569
0.078307435 0.0047733616 -0.030429518 -0.073659785 0.07798845 0.0772278 -0.11802289 0.015931744
-0.0035614355 -0.037559472 -0.10742428 0.009947102 0.08585129 -0.14453271 0.046931632 0.0610331
-0.08842263 0.1557499 -0.054912798 -0.09771157 -0.055712093 0.033034414 -0.12094755 -0.07487599
0.18230595 0.1247656 -0.06738756 -0.088981725 0.1147641 0.07047235 0.082948744 -0.07424577
00000000: 7f99 103e 6d60 013e 833d 803e d466 cdbc
00000010: 3771 313e 2d14 113d aeb9 2d3e a628 cabc
00000020: 5e56 113c 3ce0 e23d 70df 4b3e 4c1c 423e
00000030: d763 5b3e d04a 143e 6445 8cbc 1ef7 033e
00000040: 1ce7 e03d 1154 c83d a885 d63d 6b13 233e
00000050: a766 533d b0e4 d33d 4ae5 ec3c 45ea 0a3d
00000060: 60f5 ff3d 1831 583e c6d4 ea3d 5ec7 993d
00000070: d982 1d3e 4b07 223d 109a 1ebd 61ff 0e3e
00000080: af7f 3f3e a989 013e de5e 28bd f814 c33d
00000090: 21f1 8a3d 6c2f 413e 79dd 673c 8df3 773e
000000a0: cf9d 253d 4b25 a83d 401a cd3d 8d12 523c
000000b0: 1538 3f3d b100 163e 5d2b d13d 2ba0 61bc
000000c0: 8e29 693e 4426 733c c251 323d 04c2 4f3e
000000d0: 15cd e73d 6092 373e 7c05 833d e496 943d
000000e0: f359 1e3e f4a0 293e 3c33 403e b908 1f3e
000000f0: 18a2 963d cde3 6b3e ba62 b53d 73fa 0b3e
00000100: 5371 de3d b8de f93c d1c5 1e3d 30d1 85bc
00000110: b0c1 023e fe3a c33d 7d16 0bbc cfda 013e
00000120: 9c1a 0a3e eb68 613d 2981 813d 6509 043b
00000130: bd92 3e3e e2a9 ffbb ba6e 24bc fe7b be3d
00000140: eb11 243e ea95 063e 4124 133e 8d66 223e
00000150: 34fe af3d 8396 eb3d 5493 af3d 74d9 1d3e
00000160: fdc3 bd3d 8064 fb3d 41dd 4e3e bceb 923d
00000170: 3db1 d13d bb48 f3bc 38cb 073e d89f 083e
00000180: b682 8a3d e1d1 7b3d 2e4a 493e aec6 4d3e
00000190: ff2a 383d cf8f f5bc 6c0b 75be 14ec cdbc
000001a0: 8c1f ae3a 560e 44be f4a1 10be 0391 e6bd
000001b0: c5c1 8bbc fe8e 5cbe 3422 b23c 79dd 24be
000001c0: 133f 54be e16f 0b3e d992 f3bc 6f8a 173d
000001d0: cdf7 71be 1860 94bd f574 0c3d adb1 74be
000001e0: 145f 9ebd 09aa 23bc 5669 4bbe 7ffb a1be
000001f0: c207 1cbd f675 c13d 6148 23bd 0585 28bd
00000200: d9ab 3ebd 3792 7ebd 2620 a63d c32d 90bd
00000210: 9f7c 7bbb 6bed ff3b 0b50 05bd 0521 5abe
00000220: 19b2 e63d 00b6 e4bd d80e 9e3d 65a6 b1be
00000230: 93a7 983c 2b68 2dbe eb3d 93bc 718d 1a3e
00000240: 05ac f7bd caaf 0fbe 8d75 74bd 1441 b5bd
00000250: ab76 b13d bd86 8bbd f39b debd 7840 43be
00000260: 4315 0b3d 8712 8e3d f188 8cbe c1dc 57be
00000270: c38d 64be 3441 213d 077c 87be 3f2b a8bd
00000280: ed37 53be e6e6 d7bd 57e1 733d a54c 203d
00000290: eadc 68be 2ab4 11be 059c f2bd 5aa9 ff3d
000002a0: 13a4 2c3e d18b 373e e05a fabd 3be8 59be
000002b0: 967f 99bd 2ce6 893e f1a5 c2bd 4c2e 683d
000002c0: 0d75 e1bd 788c de3c e871 623d a83a 16be
000002d0: 3c0f 79be cf14 b7bd 137a 5dbe f4fc 9cbc
000002e0: ce7b 4cbc daa6 01be 7bbc bdbd 5841 cf3b
000002f0: 5d5d 2cbb c769 8b3c b748 033e 2f81 44be
00000300: 3d0d 8dbe e856 95bd bba9 b6bd fe35 86bd
00000310: 1612 05be e90a b13d 45d1 3c3c 321c 4cbe
00000320: b256 873d ae4e b93d bd76 73bd 23ba 12be
00000330: 9ab8 b5bd d3e5 39bd bf09 0e3d a855 5e3d
00000340: 64eb b9bd e2e8 26bd 158e cdbd 1ac4 7abc
00000350: 9b0f 863c 834a ef3a 58e0 f53d 2d9f 463e
00000360: 0021 843d f19a f13d 60f5 1cbe d92a 6d3b
00000370: d10f 063e 677a 13bd 53d7 06bd 6ec1 35be
00000380: a65f a03d dc69 9c3b 5347 f9bc f1da 96bd
00000390: 69b8 9f3d 9c29 9e3d fcb5 f1bd 4a83 823c
000003a0: f966 69bb f6d7 19bd 4301 dcbd 2bf9 223c
000003b0: cdd2 af3d 6200 14be 623b 403d d8fd 793d
000003c0: ed16 b5bd e77c 1f3e 3eec 60bd 011d c8bd
000003d0: 5d32 64bd 184f 073d 59b3 f7bd 9558 99bd
000003e0: 69ae 3a3e 1b85 ff3d 7d02 8abd 0d3c b6bd
000003f0: 7109 eb3d cf53 903d 08e1 a93d 2b0e 98bd

weight_ih_l0_reverse f4 [400, 100]
-0.1128996 0.0009653263 0.07425371 -0.02342391 -0.26711154 0.22234903 -0.015868882 0.14331391
-0.32250378 0.29595923 0.19472209 -0.276741 -0.18423805 -0.09257148 0.045076236 -0.07152591
-0.13889511 0.21301809 -0.09568555 -0.029745772 -0.11024349 -0.11796795 0.0857618 -0.16099477
-0.05023946 -0.32903594 0.18934613 0.16091236 -0.16304904 0.34700623 0.15903997 0.13916671
-0.035883237 0.025969548 -0.13859884 -0.0010376568 -0.11765743 -0.16900368 0.23143812 0.07915228
0.0014423451 -0.15248255 -0.27079025 0.21026416 -0.25011542 -0.13442065 -0.08987782 -0.34168494
-0.1613435 0.13668752 0.05269478 0.14641137 -0.08531914 -0.2865679 0.09115533 -0.24387537
0.09033665 -0.006544924 0.056575708 -0.2893408 0.02335931 -0.19482519 -0.03513317 -0.05702881
0.037393827 -0.15363458 0.042194005 -0.048482772 -0.23731914 0.01570358 -0.33016336 0.0369583
-0.18240896 -0.4295956 -0.20253664 -0.1300283 -0.124108426 0.06995904 0.07343063 -0.040561855
-0.17631601 0.09199117 -0.26173794 0.17951259 0.12567578 -0.12173191 -0.07135394 0.047824323
0.019352432 0.25289962 -0.023405163 0.13569905 0.12454801 -0.20191221 0.08191402 0.15518935
0.21449934 -0.130606 -0.038220737 0.19437394 0.157798 0.053365108 0.011076757 0.089856535
0.07905225 -0.033051647 0.1432882 0.04130025 -0.03784076 -0.055431258 -0.05735838 0.049630407
0.049166027 -0.08317418 -0.095686406 0.032671005 0.16686846 -0.0363511 -0.19079581 -0.15237017
0.16044986 0.1440599 -0.048425537 -0.025191028 0.123927124 0.091964476 -0.013911734 -0.11661508
0.012172693 -0.09425313 -0.10334997 -0.10267625 0.15160455 0.089924864 0.098963045 0.13993193
0.08746134 -0.009143683 -0.0037319572 0.13298203 0.07188445 -0.15598673 0.083217904 -0.074926026
0.017079666 -0.06848345 0.018517194 0.035775106 0.07055213 -0.07541976 0.043870635 -0.16785885
0.040372718 0.16984709 0.17951564 0.03690945 -0.0975755 -0.11225033 0.07758812 0.15643519
0.032049675 -0.022001324 -0.107517 0.019901538 -0.104289144 -0.15161574 -0.008643237 0.012572154
0.06752456 0.0075966213 -0.021681031 0.0012044775 0.056811202 0.16486816 0.09170609 -0.14206927
-0.0006684641 -0.008438602 -0.11099384 0.186674 0.04668985 0.1531351 0.16227627 -0.1637683
-0.06935019 0.14100267 0.16810277 0.18519025 0.0908628 -0.041417822 0.043757435 0.021416776
-0.07868482 0.14420046 -0.14173268 0.047514033 -0.08848219 0.08290182 0.0061085885 -0.0672066
0.12565833 -0.036656156 0.18211268 0.18041268 0.07635267 -0.021140594 0.14613499 0.11783197
-0.0898506 -0.048556264 -0.13993753 0.010937545 0.06930337 0.017088687 -0.007264779 0.16189277
0.15496963 -0.08228877 -0.16847701 -0.032574683 0.11739323 0.11345065 -0.114936456 0.115861684
0.17206083 0.07140795 -0.11667674 -0.094911784 0.14050466 -0.12721315 -0.08008295 -0.030575354
0.17838609 0.12990591 0.14269067 0.017562652 0.024269035 -0.013971205 0.013723969 0.061057825
0.15841816 -0.14876206 0.05772664 -0.029664256 0.0848274 -0.11636209 0.047315482 0.08339307
-0.096201345 -0.02246394 0.080502525 -0.07542177 -0.0010748708 0.1744828 0.024805233 0.036578394
00000000: e837 e7bd f40d 7d3a 5412 983d 80e3 bfbc
00000010: d8c2 88be 77af 633e 75ff 81bc e2c0 123e
00000020: 371f a5be f887 973e 3a65 473e ffb0 8dbe
00000030: e6a8 3cbe 1e96 bdbd dca1 383d 2d7c 92bd
00000040: 853a 0ebe 6a21 5a3e c9f6 c3bd 68ad f3bc
00000050: 57c7 e1bd 2e99 f1bd e2a3 af3d d0db 24be
00000060: e4c7 4dbd 6677 a8be f4e3 413e 36c6 243e
00000070: 54f6 26be cdaa b13e 60db 223e b881 0e3e
00000080: 4dfa 12bd 17be d43c dbec 0dbe fc01 88ba
00000090: 61f6 f0bd 4d0f 2dbe 1dfe 6c3e 971a a23d
000000a0: 120d bd3a 6324 1cbe 05a5 8abe 7d4f 573e
000000b0: 210f 80be 91a5 09be dd11 b8bd 54f1 aebe
000000c0: 3b37 25be d0f7 0b3e 7bd6 573d ddec 153e
000000d0: cdbb aebd 07b9 92be a5af ba3d 77ba 79be
000000e0: 6c02 b93d cd76 d6bb eebb 673d 7a24 94be
000000f0: 065c bf3c 4180 47be cde7 0fbd 0b97 69bd
00000100: 452a 193d 6252 1dbe 9fd3 2c3d df95 46bd
00000110: ca03 73be cba4 803c 2c0b a9be 9661 173d
00000120: 6ac9 3abe f4f3 dbbe c465 4fbe 2426 05be
00000130: 8f2c febd af46 8f3d cc62 963d 3024 26bd
00000140: 2f8c 34be de65 bc3d 8402 86be 26d2 373e
00000150: 27b1 003e 944e f9bd 0422 92bd 70e3 433d
00000160: fe88 9e3c 0f7c 813e 2fbc bfbc b1f4 0a3e
00000170: 0713 ff3d 13c2 4ebe 8ac2 a73d f5e9 1e3e
00000180: b7a5 5b3e 94bd 05be 598d 1cbd f609 473e
00000190: cd95 213e 5f95 5a3d 497b 353c b406 b83d
000001a0: 25e6 a13d 2a61 07bd 24ba 123e 732a 293d
000001b0: eafe 1abd e30b 63bd 9ff0 6abd 4149 4b3d
000001c0: 5162 493d 3957 aabd 3cf7 c3bd 08d2 053d
000001d0: 91df 2a3e e4e4 14bd fa5f 43be ed06 1cbe
000001e0: f84c 243e 7084 133e db59 46bd 6a5d cebc
000001f0: 81cd fd3d df57 bc3d 0bee 63bc e3d3 eebd
00000200: fa6f 473c c907 c1bd 26a9 d3bd ed47 d2bd
00000210: 393e 1b3e 872a b83d 23ad ca3d 514a 0f3e
00000220: ee1e b33d 63cf 15bc da93 74bb 712c 083e
00000230: 2838 933d fcba 1fbe 266e aa3d d172 99bd
00000240: a8ea 8b3c 0d41 8cbd 5fb1 973c eb88 123d
00000250: a37d 903d ad75 9abd b2b1 333d 31e3 2bbe
00000260: dd5d 253d 65ec 2d3e f3d2 373e 5d2e 173d
00000270: aad5 c7bd 80e3 e5bd 85e6 9e3d 8c30 203e
00000280: 8546 033d 1f3c b4bc df31 dcbd 8d08 a33c
00000290: 8c95 d5bd 2841 1bbe 5d9c 0dbc 70fb 4d3c
000002a0: 514a 8a3d 14ed f83b 6b9c b1bc 8fdf 9d3a
000002b0: ddb2 683d 33d3 283e 67d0 bb3d 9b7a 11be
000002c0: de3b 2fba 1042 0abc bd50 e3bd 7827 3f3e
000002d0: db3d 3f3d 73cf 1c3e c02b 263e e1b2 27be
000002e0: 7907 8ebd 0163 103e 2223 2c3e 83a2 3d3e
000002f0: 4716 ba3d bca5 29bd ff3a 333d 3c72 af3c
00000300: 8225 a1bd 49a9 133e 5f22 11be 139e 423d
00000310: 2736 b5bd 6ec8 a93d 8e2a c83b 9da3 89bd
00000320: 94ac 003e c424 16bd bf7b 3a3e 1abe 383e
00000330: ca5e 9c3d 0a2f adbc 69a4 153e e351 f13d
00000340: 9703 b8bd efe2 46bd c94b 0fbe 6433 333c
00000350: edee 8d3d 93fd 8b3c 620d eebb 38c7 253e
00000360: 5cb0 1e3e 0487 a8bd 3d85 2cbe 086d 05bd
00000370: dd6b f03d d058 e83d ce63 ebbd e448 ed3d
00000380: b730 303e 553e 923d 37f4 eebd 1c61 c2bd
00000390: 74e0 0f3e 2a44 02be 8802 a4bd 2a79 fabc
000003a0: d8aa 363e 0e06 053e 811d 123e 8ddf 8f3c
000003b0: dbcf c63c 7be7 64bc 80da 603c c517 7a3d
000003c0: 5f38 223e 1555 18be c572 6c3d 7402 f3bc
000003d0: fdb9 ad3d 3f4f eebd e1cd 413d fcc9 aa3d
000003e0: 3605 c5bd 4c06 b8bc 82de a43d bb76 9abd
000003f0: aee2 8cba 9eab 323e 5834 cb3c 3ad3 153d

weight_hh_l0_reverse f4 [400, 100]
0.113329835 0.12949708 0.09919513 -0.19123915 -0.047336522 -0.107642636 0.006329293 0.16128822
0.01679813 -0.059297014 0.14724384 -0.13936211 -0.16254139 0.13103107 -0.073008314 0.04002066
0.03718016 -0.06127313 0.20390175 0.008627148 0.2665021 -0.0024827612 0.16093382 -0.033538666
-0.010279956 0.05655072 0.079758935 -0.049645707 -0.044552594 -0.13099006 0.13889869 -0.1717723
0.23671791 0.05178742 0.11932957 -0.10426911 -0.079469085 -0.15858048 0.1831698 -0.052035052
-0.14767905 -0.024673093 0.10534497 -0.0096321395 0.10297852 0.257848 0.08871051 0.021745447
0.12640132 -0.22754689 -0.16692309 -0.007877684 0.00978423 -0.16681105 0.21146528 0.019688517
-0.103598446 0.067371055 -0.11951634 -0.17354462 -0.08686297 -0.016829409 0.14885013 -0.051770717
0.21596691 0.18087886 0.1452978 -0.0225532 0.050556768 -0.11672043 0.20400165 0.19057785
-0.056777067 0.055673435 0.13343309 0.09221413 0.10535861 0.14521715 0.24560475 0.15160382
-0.12391167 -0.19882786 0.11529391 -0.0995495 -0.14583547 0.16341464 0.10428443 -0.051426947
-0.014452355 -0.005502946 0.0008151954 -0.16985576 -0.15475945 0.016661275 0.041969854 0.15205987
-0.08706492 0.053499408 -0.057783343 0.18494414 0.07052142 0.14456931 0.046729706 -0.07233111
-0.1716807 0.01796356 0.1701117 0.1570336 -0.096374266 0.10155119 0.14056778 0.023027563
0.13590981 0.16057165 0.015771864 -0.011664417 0.049928017 -0.0024784568 0.04030634 0.006275573
-0.008224686 -0.13583782 -5.1916017e-05 -0.053375583 -0.038982548 0.09768308 0.1781958 -0.15642776
-0.12460413 -0.04966529 -0.009989562 -0.15266979 -0.037708152 0.13297273 0.0078664115 0.0064830133
-0.1342129 -0.18656386 0.00787306 -0.1053682 -0.06914159 -0.09811029 0.03349382 -0.0037530223
0.009662561 0.07087945 0.101736054 -0.11076869 0.07009611 0.07316145 -0.1579012 -0.15839894
0.004751501 -0.14424309 0.09271397 0.006324464 -0.043256037 -0.0020069769 -0.07677353 -0.046784528
-0.059738807 -0.024500014 0.084000625 -0.05907974 -0.08164159 0.08112576 0.18478574 0.10648075
-0.10815491 -0.09681817 -0.0024975217 0.01613115 -0.066553 0.11273624 0.17160961 -0.03781222
0.056185607 0.15800175 0.019758916 0.11974001 -0.0026452478 0.0011625699 0.04730368 0.08366347
-0.08763646 -0.018400831 0.04966685 -0.10984921 0.0096824905 -0.03390018 0.06329612 0.05016461
0.12055561 0.0062702633 0.13596024 0.12967208 -0.103528105 0.097978905 -0.0036918158 -0.033966508
0.1405923 0.088561326 0.11453106 -0.18499923 -0.18712813 -0.17729717 0.03256671 0.09833077
0.012396481 0.087491006 0.17316431 -0.14046739 0.13955683 0.07002428 -0.10762151 0.15317066
-0.031006431 -0.03511502 0.1989475 0.0985091 0.03858252 -0.027155327 0.09400321 -0.09787871
-0.14276806 0.034032546 0.18188575 -0.13905194 -0.15614611 -0.008638557 0.11282888 -0.031325914
-0.09318708 0.04902193 0.069772415 0.029628105 -0.10181236 -0.09298763 0.0055801 -0.06573297
-0.17716324 -0.08641185 0.00454822 0.16383113 0.17651068 -0.06590124 0.04216498 0.030281728
0.054832526 0.071327254 -0.0815811 -0.12142369 0.026950175 -0.069216006 0.053250123 -0.10401638
00000000: 7919 e83d e29a 043e d126 cb3d 32d4 43be
00000010: f1e3 41bd be73 dcbd f565 cf3b bd28 253e
00000020: 3b9c 893c 6de1 72bd 17c7 163e f1b4 0ebe
00000030: 4071 26be 022d 063e 6285 95bd b4ec 233d
00000040: 394a 183d 89f9 7abd 9fcb 503e e258 0d3c
00000050: f772 883e d2b5 22bb d6cb 243e d75f 09bd
00000060: 436d 28bc baa1 673d a758 a33d 4c59 4bbd
00000070: c87c 36bd 4222 06be 753b 0e3e 14e5 2fbe
00000080: 2e66 723e 0c1f 543d 1063 f43d 0b8b d5bd
00000090: b0c0 a2bd ec62 22be dd90 3b3e b522 55bd
000000a0: 2d39 17be 3a1f cabc 1bbf d73d 1fd0 1dbc
000000b0: 67e6 d23d a704 843e dbad b53d 8223 b23c
000000c0: 596f 013e 0d02 69be e3ed 2abe 6711 01bc
000000d0: 094e 203c 84d0 2abe 5b8a 583e d049 a13c
000000e0: 6c2b d4bd d6f9 893d fcc4 f4bd aeb5 31be
000000f0: 36e5 b1bd d4dd 89bc 2b6c 183e 880d 54bd
00000100: 6e26 5d3e 4f38 393e f2c8 143e 7dc1 b8bc
00000110: 9d14 4f3d 1f0b efbd cfe5 503e d726 433e
00000120: 128f 68bd d409 643d afa2 083e c3da bc3d
00000130: 41c6 d73d ceb3 143e d07f 7b3e 083e 1b3e
00000140: 67c5 fdbd 8899 4bbe 371f ec3d 9ce0 cbbd
00000150: e555 15be 2b56 273e 1393 d53d 10a5 52bd
00000160: 92c9 6cbc 0f52 b4bb d6b2 553a abee 2dbe
00000170: 4379 1ebe 3a7d 883c 95e8 2b3d 95b5 1b3e
00000180: 184f b2bd 3222 5b3d 3aae 6cbd ff61 3d3e
00000190: 896d 903d fa09 143e a667 3f3d 5522 94bd
000001a0: 11cd 2fbe 5128 933c c331 2e3e 6bcd 203e
000001b0: df5f c5bd 12fa cf3d 00f1 0f3e 4da4 bc3c
000001c0: f12b 0b3e e56c 243e ff33 813c 1c1c 3fbc
000001d0: 5281 4c3d 9b6d 22bb 4318 253d 52a3 cd3b
000001e0: d5c0 06bc 1219 0bbe 66c0 59b8 5ba0 5abd
000001f0: 2aac 1fbd 110e c83d f678 363e 992e 20be
00000200: 7330 ffbd d56d 4bbd 43ab 23bc 7855 1cbe
00000210: dd73 1abd 012a 083e 1fe2 003c 756f d43b
00000220: 1b6f 09be 990a 3fbe 02fe 003c 48cb d7bd
00000230: 1b9a 8dbd 0cee c8bd d130 093d 44f5 75bb
00000240: b84f 1e3c 3f29 913d fe5a d03d b2da e2bd
00000250: 8d8e 8f3d acd5 953d dab0 21be 5533 22be
00000260: 7bb2 9b3b 76b4 13be d2e0 bd3d 733d cf3b
00000270: 3e2d 31bd 7c87 03bb 713b 9dbd 22a1 3fbd
00000280: aeb0 74bd 41b4 c8bc 8508 ac3d 99fd 71bd
00000290: b533 a7bd 4325 a63d 7938 3d3e 9412 da3d
000002a0: 5280 ddbd 9b48 c6bd 76ad 23bb 7925 843c
000002b0: f04c 88bd 42e2 e63d 6eba 2f3e fde0 1abd
000002c0: e122 663d 36cb 213e 73dd a13c 403a f53d
000002d0: e55b 2dbb 5f61 983a 81c1 413d c157 ab3d
000002e0: bf7a b3bd 57bd 96bc 786f 4b3d 9ff8 e0bd
000002f0: 4fa3 1e3c eada 0abd 65a1 813d 6879 4d3d
00000300: dce5 f63d c876 cd3b 2939 0b3e c2c8 043e
00000310: 8b06 d4bd 2aa9 c83d 64f2 71bb 7720 0bbd
00000320: 6ef7 0f3e a45f b53d 438f ea3d 7070 3dbe
00000330: 849e 3fbe 648d 35be ac64 053d a561 c93d
00000340: 9c1a 4b3c 7c2e b33d fc51 313e afd6 0fbe
00000350: fce7 0e3e e468 8f3d ab68 dcbd c5d8 1c3e
00000360: 3301 febc c4d4 0fbd e5b8 4b3e 24bf c93d
00000370: b408 1e3d d974 debc c184 c03d a274 c8bd
00000380: ca31 12be b665 0b3d 4240 3a3e a263 0ebe
00000390: c4e4 1fbe bc88 0dbc d412 e73d 9a4f 00bd
000003a0: ded8 bebd 38cb 483d d7e4 8e3d a4b6 f23c
000003b0: 0083 d0bd 4c70 bebd 46d9 b63b 029f 86bd
000003c0: 486a 35be b2f8 b0bd 3c09 953b 59c3 273e
000003d0: 37bf 343e 3bf7 86bd 30b5 2c3d 6311 f83c
000003e0: 1298 603d 0614 923d fe13 a7bd fcac f8bd
000003f0: 9dc6 dc3c 1fc1 8dbd cd1c 5a3d 8a06 d5bd

bias_ih_l0_reverse f4 [400]
0.018109605 0.006205121 0.15993938 0.099902116 0.088699944 0.03298001 0.034814205 0.25668895
0.23750757 0.17741972 0.038587373 0.13105968 0.1011284 0.10657342 0.12165038 0.06723645
0.015085674 -0.04404894 0.17250302 0.009395573 -0.029319365 0.00885908 0.07190914 0.089428335
0.15311632 0.021380316 0.010867394 0.1307928 -0.041187912 0.18475562 0.11638314 0.09235362
0.07028552 0.030740013 0.16297418 0.12337395 0.13577087 0.12215638 0.15228367 0.16844398
0.18813793 0.06646852 0.24674697 -0.021565441 0.014765738 0.07776486 0.16126055 -0.005353698
0.15410207 -0.045820124 0.0254876 0.17472178 0.0025881897 -0.0006145346 0.19895832 0.11042243
-0.0070738387 0.18066043 0.16272648 0.15371726 0.07031952 0.13577484 0.058361925 0.114086725
0.12502126 0.06884702 0.14998695 0.12850702 0.192268 0.044537127 0.064155385 0.056190446
0.08056226 0.1495631 0.06671942 0.12105402 0.099848926 0.20196494 0.14778638 0.050876003
0.088095754 -0.083676636 0.17917597 0.033104785 0.07531857 0.13349763 0.038255315 0.05055799
0.17581503 0.20644237 -0.04855761 0.08446257 -0.045677584 0.189073 -0.0052344175 0.11429168
0.12089321 -0.012528636 0.063950464 0.049336594 -0.17443153 0.05858339 0.068791576 0.16459608
-0.041301638 0.15587094 -0.038101792 -0.011637048 -0.07075099 -0.16830692 -0.004931874 0.08576956
-0.100078076 0.069402635 -0.15894869 -0.009650731 -0.049975485 -0.042819273 0.13042529 0.06977375
-0.05287017 0.10458364 0.07181214 0.19148332 0.15035251 0.04965613 0.1104894 0.006366637
-0.0139472615 0.0012526924 -0.20774889 0.043667026 -0.079234034 0.12769811 0.11166758 -0.18032567
0.11134562 0.11954688 -0.1013614 0.16391632 0.11185811 0.11363163 -0.19345917 0.07458959
0.111704126 -0.09557782 -0.09757867 -0.11478835 0.028272968 -0.025454592 0.11724711 0.07084214
0.034771733 -0.0839492 -0.06803543 0.07628584 -0.11299806 -0.14424694 0.089610085 -0.027181346
-0.031757493 0.028761188 -0.08105136 0.014821754 -0.12363108 0.10213655 0.07298591 -0.014269726
-0.09247171 0.14090621 0.0059125624 0.037400983 -0.15260461 0.09414987 0.05080471 -0.20642254
0.04342357 0.11855501 -0.10170615 0.015794815 -0.15886848 -0.116040654 -0.03179494 -0.040432777
0.13667619 0.01151615 -0.16513374 0.024612157 -0.14974514 -0.16149545 -0.08367398 -0.037595063
-0.0027711578 -0.06973198 0.05453189 -0.1837728 0.06527781 -0.063128546 0.17193097 -0.22846407
0.024687124 0.028848361 0.15168159 -0.14957294 -0.029608825 -0.037530854 0.137568 0.0091312565
-0.07094426 0.033685077 0.009416979 -0.05591675 -0.02032289 0.16485971 0.044175945 0.07964972
0.04019793 -0.04748113 0.18983988 0.038034346 0.09724396 -0.20303631 0.14665088 -0.16979694
-0.13038248 -0.019451292 0.12349264 -0.19151053 0.06805301 -0.11294785 0.07583081 -0.04551841
0.103009924 0.07427913 0.018088577 -0.0451369 -0.090597466 -0.032304242 0.08966547 -0.0029112566
-0.070303254 -0.19058879 0.0709468 0.070225455 0.058620274 -0.01876228 -0.01078952 -0.044183187
0.18071757 -0.13051708 -0.08561448 0.08679221 0.20081173 -0.0911312 -0.020661486 -0.032293487
00000000: 985a 943c 5454 cb3b 26c7 233e 7b99 cc3d
00000010: 51a8 b53d 0c16 073d 5799 0e3d bc6c 833e
00000020: 2f35 733e 84ad 353e cb0d 1e3d 8234 063e
00000030: 681c cf3d 2a43 da3d d623 f93d 44b3 893d
00000040: e729 773c a96c 34bd a2a4 303e e4ef 193c
00000050: 2a2f f0bc ad25 113c 1945 933d 3426 b73d
00000060: 86ca 1c3e c625 af3c 270d 323c 8cee 053e
00000070: a8b4 28bd 9430 3d3e 495a ee3d e523 bd3d
00000080: dbf1 8f3d 7bd2 fb3c b4e2 263e 7bab fc3d
00000090: 8507 0b3e 202d fa3d 40f0 1b3e 947c 2c3e
000000a0: 3ba7 403e a620 883d 3dab 7c3e 02aa b0bc
000000b0: feeb 713c 2f43 9f3d 7c21 253e 136e afbb
000000c0: efcc 1d3e e2ad 3bbd 5fcb d03c 44ea 323e
000000d0: 9e9e 293b b818 21ba bbbb 4b3e 2825 e23d
000000e0: a9cb e7bb 0cff 383e c5a1 263e 0f68 1d3e
000000f0: ae03 903d 8f08 0b3e ea0c 6f3d 4da6 e93d
00000100: 9305 003e abff 8c3d 2e96 193e 5897 033e
00000110: e7e1 443e 906c 363d e663 833d f427 663d
00000120: d3fd a43d 1227 193e 31a4 883d 2ceb f73d
00000130: 987d cc3d e6cf 4e3e 5055 173e 5b63 503d
00000140: 8c6b b43d a85e abbd e879 373e e298 073d
00000150: 9f40 9a3d 9ab3 083e 9bb1 1c3d e515 4f3d
00000160: db08 343e a165 533e 58e4 46bd b6fa ac3d
00000170: 6b18 3bbd 5a9c 413e 7a85 abbb c211 ea3d
00000180: dc96 f73d e844 4dbc 76f8 823d 2b15 4a3d
00000190: 2e9e 32be 23f5 6f3d 99e2 8c3d e08b 283e
000001a0: e82b 29bd a29c 1f3e a010 1cbd 51a9 3ebc
000001b0: e5e5 90bd a658 2cbe 8f9b a1bb f3a7 af3d
000001c0: bcf5 ccbd f822 8e3d 72c3 22be 1a1e 1ebc
000001d0: 18b3 4cbd 4363 2fbd 358e 053e 8ae5 8e3d
000001e0: 648e 58bd f32f d63d 3e12 933d 3414 443e
000001f0: 02f6 193e 3a64 4b3d 4448 e23d 399f d03b
00000200: 0e83 64bc 6231 a43a 20bc 54be 32dc 323d
00000210: 7445 a2bd 4bc3 023e f9b1 e43d 4ba7 38be
00000220: 2c09 e43d ffd4 f43d 9196 cfbd aed9 273e
00000230: dd15 e53d b3b7 e83d 291a 46be 6dc2 983d
00000240: 22c5 e43d 4ebe c3bd 53d7 c7bd 2816 ebbd
00000250: b69c e73c 2686 d0bc 411f f03d af15 913d
00000260: ce6c 0e3d 8fed abbd 2956 8bbd c03b 9c3d
00000270: 876b e7bd 78b5 13be 7e85 b73d 6aab debc
00000280: 2514 02bd 959c eb3c 41fe a5bd f1d6 723c
00000290: 4b32 fdbd f82c d13d a379 953d 92cb 69bc
000002a0: cf61 bdbd b849 103e 2bbe c13b c631 193d
000002b0: 6244 1cbe a6d1 c03d 9918 503d 6e60 53be
000002c0: eadc 313d f8cc f23d 504b d0bd 2164 813c
000002d0: 6bae 22be b9a6 edbd 693b 02bd d79c 25bd
000002e0: d8f4 0b3e 3cae 3c3c d218 29be 6f9f c93c
000002f0: ca56 19be 105f 25be 435d abbd 48fd 19bd
00000300: 509c 35bb a4cf 8ebd d55c 5f3d f02e 3cbe
00000310: 5fb0 853d 8a49 81bd ac0e 303e 7cf2 69be
00000320: a73c ca3c 6653 ec3c 6b52 1b3e a629 19be
00000330: 358e f2bc f4b9 19bd a0de 0c3e 449b 153c
00000340: 394b 91bd 5df9 093d ac49 1a3c f608 65bd
00000350: 307c a6bc fcd0 283e d6f1 343d 641f a33d
00000360: 96a6 243d 937b 42bd 6365 423e e7c9 1b3d
00000370: d727 c73d c0e8 4fbe a62b 163e 40df 2dbe
00000380: fc82 05be 5158 9fbc b6e9 fc3d 561b 44be
00000390: 605f 8b3d 3451 e7bd 2f4d 9b3d 8371 3abd
000003a0: def6 d23d a81f 983d 7f2e 943c 78e1 38bd
000003b0: 2a8b b9bd 7451 04bd 88a2 b73d c8ca 3ebb
000003c0: 27fb 8fbd b529 43be 8e4c 913d 5dd2 8f3d
000003d0: d01b 703d 5ab3 99bc 87c6 30bc 6ef9 34bd
000003e0: 070e 393e 45a6 05be a556 afbd 1dc0 b13d
000003f0: 97a1 4d3e ffa2 babd 4742 a9bc 2d46 04bd
